…
2024-05-22 01:40:55 [INFO ]  	weight_decay: 0.01
2024-05-22 01:40:55 [INFO ]  	weights_dataset_name: null
2024-05-22 01:40:55 [INFO ]  	weights_dir: null
2024-05-22 01:40:55 [INFO ]  	
Loaded data shapes: (22818, 128), (22818,), (22818,)
Loaded data shapes: (4512, 128), (4512,), (4512,)
Loaded data shapes: (5032, 128), (5032,), (5032,)
2024-05-22 01:41:01 [INFO ]  train dataset size:	22818
2024-05-22 01:41:01 [INFO ]  validation dataset size: 	4512
2024-05-22 01:41:01 [INFO ]  test dataset size: 	5032
2024-05-22 01:41:01 [INFO ]  datasets built!
2024-05-22 01:41:22 [INFO ]  MLP( 
2024-05-22 01:41:22 [INFO ]    (output_layer): Linear(in_features=300, out_features=2, bias=True)
2024-05-22 01:41:22 [INFO ]    (AF): Tanh()
2024-05-22 01:41:22 [INFO ]    (dropout): Dropout(p=0.1, inplace=False)
2024-05-22 01:41:22 [INFO ]    (hidden_layers): ModuleList(
2024-05-22 01:41:22 [INFO ]      (0): Linear(in_features=768, out_features=300, bias=True)
2024-05-22 01:41:22 [INFO ]      (1): Dropout(p=0.1, inplace=False)
2024-05-22 01:41:22 [INFO ]      (2): Tanh()
2024-05-22 01:41:22 [INFO ]      (3): Linear(in_features=300, out_features=300, bias=True)
2024-05-22 01:41:22 [INFO ]      (4): Dropout(p=0.1, inplace=False)
2024-05-22 01:41:22 [INFO ]      (5): Tanh()
2024-05-22 01:41:22 [INFO ]    )
2024-05-22 01:41:22 [INFO ]    (criterion): CrossEntropyLoss()
2024-05-22 01:41:22 [INFO ]  )
2024-05-22 01:41:22 [INFO ]  Total number of parameters: 321602 

2024-05-22 01:41:23 [INFO ]  BERTClassifier( 
2024-05-22 01:41:23 [INFO ]    (bert): BertModel(
2024-05-22 01:41:23 [INFO ]      (embeddings): BertEmbeddings(
2024-05-22 01:41:23 [INFO ]        (word_embeddings): Embedding(28996, 768, padding_idx=0)
2024-05-22 01:41:23 [INFO ]        (position_embeddings): Embedding(512, 768)
2024-05-22 01:41:23 [INFO ]        (token_type_embeddings): Embedding(2, 768)
2024-05-22 01:41:23 [INFO ]        (LayerNorm): LayerNorm((768,), eps=1e-12, elementwise_affine=True)
2024-05-22 01:41:23 [INFO ]        (dropout): Dropout(p=0.1, inplace=False)
2024-05-22 01:41:23 [INFO ]      )
2024-05-22 01:41:23 [INFO ]      (encoder): BertEncoder(
2024-05-22 01:41:23 [INFO ]        (layer): ModuleList(
2024-05-22 01:41:23 [INFO ]          (0): BertLayer(
2024-05-22 01:41:23 [INFO ]            (attention): BertAttention(
2024-05-22 01:41:23 [INFO ]              (self): BertSelfAttention(
2024-05-22 01:41:23 [INFO ]                (query): Linear(in_features=768, out_features=768, bias=True)
2024-05-22 01:41:23 [INFO ]                (key): Linear(in_features=768, out_features=768, bias=True)
2024-05-22 01:41:23 [INFO ]                (value): Linear(in_features=768, out_features=768, bias=True)
2024-05-22 01:41:23 [INFO ]                (dropout): Dropout(p=0.1, inplace=False)
2024-05-22 01:41:23 [INFO ]              )
2024-05-22 01:41:23 [INFO ]              (output): BertSelfOutput(
2024-05-22 01:41:23 [INFO ]                (dense): Linear(in_features=768, out_features=768, bias=True)
2024-05-22 01:41:23 [INFO ]                (LayerNorm): LayerNorm((768,), eps=1e-12, elementwise_affine=True)
2024-05-22 01:41:23 [INFO ]                (dropout): Dropout(p=0.1, inplace=False)
2024-05-22 01:41:23 [INFO ]              )
2024-05-22 01:41:23 [INFO ]            )
2024-05-22 01:41:23 [INFO ]            (intermediate): BertIntermediate(
2024-05-22 01:41:23 [INFO ]              (dense): Linear(in_features=768, out_features=3072, bias=True)
2024-05-22 01:41:23 [INFO ]              (intermediate_act_fn): GELUActivation()
2024-05-22 01:41:23 [INFO ]            )
2024-05-22 01:41:23 [INFO ]            (output): BertOutput(
2024-05-22 01:41:23 [INFO ]              (dense): Linear(in_features=3072, out_features=768, bias=True)
2024-05-22 01:41:23 [INFO ]              (LayerNorm): LayerNorm((768,), eps=1e-12, elementwise_affine=True)
2024-05-22 01:41:23 [INFO ]              (dropout): Dropout(p=0.1, inplace=False)
2024-05-22 01:41:23 [INFO ]            )
2024-05-22 01:41:23 [INFO ]          )
2024-05-22 01:41:23 [INFO ]          (1): BertLayer(
2024-05-22 01:41:23 [INFO ]            (attention): BertAttention(
2024-05-22 01:41:23 [INFO ]              (self): BertSelfAttention(
2024-05-22 01:41:23 [INFO ]                (query): Linear(in_features=768, out_features=768, bias=True)
2024-05-22 01:41:23 [INFO ]                (key): Linear(in_features=768, out_features=768, bias=True)
2024-05-22 01:41:23 [INFO ]                (value): Linear(in_features=768, out_features=768, bias=True)
2024-05-22 01:41:23 [INFO ]                (dropout): Dropout(p=0.1, inplace=False)
2024-05-22 01:41:23 [INFO ]              )
2024-05-22 01:41:23 [INFO ]              (output): BertSelfOutput(
2024-05-22 01:41:23 [INFO ]                (dense): Linear(in_features=768, out_features=768, bias=True)
2024-05-22 01:41:23 [INFO ]                (LayerNorm): LayerNorm((768,), eps=1e-12, elementwise_affine=True)
2024-05-22 01:41:23 [INFO ]                (dropout): Dropout(p=0.1, inplace=False)
2024-05-22 01:41:23 [INFO ]              )
2024-05-22 01:41:23 [INFO ]            )
2024-05-22 01:41:23 [INFO ]            (intermediate): BertIntermediate(
2024-05-22 01:41:23 [INFO ]              (dense): Linear(in_features=768, out_features=3072, bias=True)
2024-05-22 01:41:23 [INFO ]              (intermediate_act_fn): GELUActivation()
2024-05-22 01:41:23 [INFO ]            )
2024-05-22 01:41:23 [INFO ]            (output): BertOutput(
2024-05-22 01:41:23 [INFO ]              (dense): Linear(in_features=3072, out_features=768, bias=True)
2024-05-22 01:41:23 [INFO ]              (LayerNorm): LayerNorm((768,), eps=1e-12, elementwise_affine=True)
2024-05-22 01:41:23 [INFO ]              (dropout): Dropout(p=0.1, inplace=False)
2024-05-22 01:41:23 [INFO ]            )
2024-05-22 01:41:23 [INFO ]          )
2024-05-22 01:41:23 [INFO ]          (2): BertLayer(
2024-05-22 01:41:23 [INFO ]            (attention): BertAttention(
2024-05-22 01:41:23 [INFO ]              (self): BertSelfAttention(
2024-05-22 01:41:23 [INFO ]                (query): Linear(in_features=768, out_features=768, bias=True)
2024-05-22 01:41:23 [INFO ]                (key): Linear(in_features=768, out_features=768, bias=True)
2024-05-22 01:41:23 [INFO ]                (value): Linear(in_features=768, out_features=768, bias=True)
2024-05-22 01:41:23 [INFO ]                (dropout): Dropout(p=0.1, inplace=False)
2024-05-22 01:41:23 [INFO ]              )
2024-05-22 01:41:23 [INFO ]              (output): BertSelfOutput(
2024-05-22 01:41:23 [INFO ]                (dense): Linear(in_features=768, out_features=768, bias=True)
2024-05-22 01:41:23 [INFO ]                (LayerNorm): LayerNorm((768,), eps=1e-12, elementwise_affine=True)
2024-05-22 01:41:23 [INFO ]                (dropout): Dropout(p=0.1, inplace=False)
2024-05-22 01:41:23 [INFO ]              )
2024-05-22 01:41:23 [INFO ]            )
2024-05-22 01:41:23 [INFO ]            (intermediate): BertIntermediate(
2024-05-22 01:41:23 [INFO ]              (dense): Linear(in_features=768, out_features=3072, bias=True)
2024-05-22 01:41:23 [INFO ]              (intermediate_act_fn): GELUActivation()
2024-05-22 01:41:23 [INFO ]            )
2024-05-22 01:41:23 [INFO ]            (output): BertOutput(
2024-05-22 01:41:23 [INFO ]              (dense): Linear(in_features=3072, out_features=768, bias=True)
2024-05-22 01:41:23 [INFO ]              (LayerNorm): LayerNorm((768,), eps=1e-12, elementwise_affine=True)
2024-05-22 01:41:23 [INFO ]              (dropout): Dropout(p=0.1, inplace=False)
2024-05-22 01:41:23 [INFO ]            )
2024-05-22 01:41:23 [INFO ]          )
2024-05-22 01:41:23 [INFO ]          (3): BertLayer(
2024-05-22 01:41:23 [INFO ]            (attention): BertAttention(
2024-05-22 01:41:23 [INFO ]              (self): BertSelfAttention(
2024-05-22 01:41:23 [INFO ]                (query): Linear(in_features=768, out_features=768, bias=True)
2024-05-22 01:41:23 [INFO ]                (key): Linear(in_features=768, out_features=768, bias=True)
2024-05-22 01:41:23 [INFO ]                (value): Linear(in_features=768, out_features=768, bias=True)
2024-05-22 01:41:23 [INFO ]                (dropout): Dropout(p=0.1, inplace=False)
2024-05-22 01:41:23 [INFO ]              )
2024-05-22 01:41:23 [INFO ]              (output): BertSelfOutput(
2024-05-22 01:41:23 [INFO ]                (dense): Linear(in_features=768, out_features=768, bias=True)
2024-05-22 01:41:23 [INFO ]                (LayerNorm): LayerNorm((768,), eps=1e-12, elementwise_affine=True)
2024-05-22 01:41:23 [INFO ]                (dropout): Dropout(p=0.1, inplace=False)
2024-05-22 01:41:23 [INFO ]              )
2024-05-22 01:41:23 [INFO ]            )
2024-05-22 01:41:23 [INFO ]            (intermediate): BertIntermediate(
2024-05-22 01:41:23 [INFO ]              (dense): Linear(in_features=768, out_features=3072, bias=True)
2024-05-22 01:41:23 [INFO ]              (intermediate_act_fn): GELUActivation()
2024-05-22 01:41:23 [INFO ]            )
2024-05-22 01:41:23 [INFO ]            (output): BertOutput(
2024-05-22 01:41:23 [INFO ]              (dense): Linear(in_features=3072, out_features=768, bias=True)
2024-05-22 01:41:23 [INFO ]              (LayerNorm): LayerNorm((768,), eps=1e-12, elementwise_affine=True)
2024-05-22 01:41:23 [INFO ]              (dropout): Dropout(p=0.1, inplace=False)
2024-05-22 01:41:23 [INFO ]            )
2024-05-22 01:41:23 [INFO ]          )
2024-05-22 01:41:23 [INFO ]          (4): BertLayer(
2024-05-22 01:41:23 [INFO ]            (attention): BertAttention(
2024-05-22 01:41:23 [INFO ]              (self): BertSelfAttention(
2024-05-22 01:41:23 [INFO ]                (query): Linear(in_features=768, out_features=768, bias=True)
2024-05-22 01:41:23 [INFO ]                (key): Linear(in_features=768, out_features=768, bias=True)
2024-05-22 01:41:23 [INFO ]                (value): Linear(in_features=768, out_features=768, bias=True)
2024-05-22 01:41:23 [INFO ]                (dropout): Dropout(p=0.1, inplace=False)
2024-05-22 01:41:23 [INFO ]              )
2024-05-22 01:41:23 [INFO ]              (output): BertSelfOutput(
2024-05-22 01:41:23 [INFO ]                (dense): Linear(in_features=768, out_features=768, bias=True)
2024-05-22 01:41:23 [INFO ]                (LayerNorm): LayerNorm((768,), eps=1e-12, elementwise_affine=True)
2024-05-22 01:41:23 [INFO ]                (dropout): Dropout(p=0.1, inplace=False)
2024-05-22 01:41:23 [INFO ]              )
2024-05-22 01:41:23 [INFO ]            )
2024-05-22 01:41:23 [INFO ]            (intermediate): BertIntermediate(
2024-05-22 01:41:23 [INFO ]              (dense): Linear(in_features=768, out_features=3072, bias=True)
2024-05-22 01:41:23 [INFO ]              (intermediate_act_fn): GELUActivation()
2024-05-22 01:41:23 [INFO ]            )
2024-05-22 01:41:23 [INFO ]            (output): BertOutput(
2024-05-22 01:41:23 [INFO ]              (dense): Linear(in_features=3072, out_features=768, bias=True)
2024-05-22 01:41:23 [INFO ]              (LayerNorm): LayerNorm((768,), eps=1e-12, elementwise_affine=True)
2024-05-22 01:41:23 [INFO ]              (dropout): Dropout(p=0.1, inplace=False)
2024-05-22 01:41:23 [INFO ]            )
2024-05-22 01:41:23 [INFO ]          )
2024-05-22 01:41:23 [INFO ]          (5): BertLayer(
2024-05-22 01:41:23 [INFO ]            (attention): BertAttention(
2024-05-22 01:41:23 [INFO ]              (self): BertSelfAttention(
2024-05-22 01:41:23 [INFO ]                (query): Linear(in_features=768, out_features=768, bias=True)
2024-05-22 01:41:23 [INFO ]                (key): Linear(in_features=768, out_features=768, bias=True)
2024-05-22 01:41:23 [INFO ]                (value): Linear(in_features=768, out_features=768, bias=True)
2024-05-22 01:41:23 [INFO ]                (dropout): Dropout(p=0.1, inplace=False)
2024-05-22 01:41:23 [INFO ]              )
2024-05-22 01:41:23 [INFO ]              (output): BertSelfOutput(
2024-05-22 01:41:23 [INFO ]                (dense): Linear(in_features=768, out_features=768, bias=True)
2024-05-22 01:41:23 [INFO ]                (LayerNorm): LayerNorm((768,), eps=1e-12, elementwise_affine=True)
2024-05-22 01:41:23 [INFO ]                (dropout): Dropout(p=0.1, inplace=False)
2024-05-22 01:41:23 [INFO ]              )
2024-05-22 01:41:23 [INFO ]            )
2024-05-22 01:41:23 [INFO ]            (intermediate): BertIntermediate(
2024-05-22 01:41:23 [INFO ]              (dense): Linear(in_features=768, out_features=3072, bias=True)
2024-05-22 01:41:23 [INFO ]              (intermediate_act_fn): GELUActivation()
2024-05-22 01:41:23 [INFO ]            )
2024-05-22 01:41:23 [INFO ]            (output): BertOutput(
2024-05-22 01:41:23 [INFO ]              (dense): Linear(in_features=3072, out_features=768, bias=True)
2024-05-22 01:41:23 [INFO ]              (LayerNorm): LayerNorm((768,), eps=1e-12, elementwise_affine=True)
2024-05-22 01:41:23 [INFO ]              (dropout): Dropout(p=0.1, inplace=False)
2024-05-22 01:41:23 [INFO ]            )
2024-05-22 01:41:23 [INFO ]          )
2024-05-22 01:41:23 [INFO ]          (6): BertLayer(
2024-05-22 01:41:23 [INFO ]            (attention): BertAttention(
2024-05-22 01:41:23 [INFO ]              (self): BertSelfAttention(
2024-05-22 01:41:23 [INFO ]                (query): Linear(in_features=768, out_features=768, bias=True)
2024-05-22 01:41:23 [INFO ]                (key): Linear(in_features=768, out_features=768, bias=True)
2024-05-22 01:41:23 [INFO ]                (value): Linear(in_features=768, out_features=768, bias=True)
2024-05-22 01:41:23 [INFO ]                (dropout): Dropout(p=0.1, inplace=False)
2024-05-22 01:41:23 [INFO ]              )
2024-05-22 01:41:23 [INFO ]              (output): BertSelfOutput(
2024-05-22 01:41:23 [INFO ]                (dense): Linear(in_features=768, out_features=768, bias=True)
2024-05-22 01:41:23 [INFO ]                (LayerNorm): LayerNorm((768,), eps=1e-12, elementwise_affine=True)
2024-05-22 01:41:23 [INFO ]                (dropout): Dropout(p=0.1, inplace=False)
2024-05-22 01:41:23 [INFO ]              )
2024-05-22 01:41:23 [INFO ]            )
2024-05-22 01:41:23 [INFO ]            (intermediate): BertIntermediate(
2024-05-22 01:41:23 [INFO ]              (dense): Linear(in_features=768, out_features=3072, bias=True)
2024-05-22 01:41:23 [INFO ]              (intermediate_act_fn): GELUActivation()
2024-05-22 01:41:23 [INFO ]            )
2024-05-22 01:41:23 [INFO ]            (output): BertOutput(
2024-05-22 01:41:23 [INFO ]              (dense): Linear(in_features=3072, out_features=768, bias=True)
2024-05-22 01:41:23 [INFO ]              (LayerNorm): LayerNorm((768,), eps=1e-12, elementwise_affine=True)
2024-05-22 01:41:23 [INFO ]              (dropout): Dropout(p=0.1, inplace=False)
2024-05-22 01:41:23 [INFO ]            )
2024-05-22 01:41:23 [INFO ]          )
2024-05-22 01:41:23 [INFO ]          (7): BertLayer(
2024-05-22 01:41:23 [INFO ]            (attention): BertAttention(
2024-05-22 01:41:23 [INFO ]              (self): BertSelfAttention(
2024-05-22 01:41:23 [INFO ]                (query): Linear(in_features=768, out_features=768, bias=True)
2024-05-22 01:41:23 [INFO ]                (key): Linear(in_features=768, out_features=768, bias=True)
2024-05-22 01:41:23 [INFO ]                (value): Linear(in_features=768, out_features=768, bias=True)
2024-05-22 01:41:23 [INFO ]                (dropout): Dropout(p=0.1, inplace=False)
2024-05-22 01:41:23 [INFO ]              )
2024-05-22 01:41:23 [INFO ]              (output): BertSelfOutput(
2024-05-22 01:41:23 [INFO ]                (dense): Linear(in_features=768, out_features=768, bias=True)
2024-05-22 01:41:23 [INFO ]                (LayerNorm): LayerNorm((768,), eps=1e-12, elementwise_affine=True)
2024-05-22 01:41:23 [INFO ]                (dropout): Dropout(p=0.1, inplace=False)
2024-05-22 01:41:23 [INFO ]              )
2024-05-22 01:41:23 [INFO ]            )
2024-05-22 01:41:23 [INFO ]            (intermediate): BertIntermediate(
2024-05-22 01:41:23 [INFO ]              (dense): Linear(in_features=768, out_features=3072, bias=True)
2024-05-22 01:41:23 [INFO ]              (intermediate_act_fn): GELUActivation()
2024-05-22 01:41:23 [INFO ]            )
2024-05-22 01:41:23 [INFO ]            (output): BertOutput(
2024-05-22 01:41:23 [INFO ]              (dense): Linear(in_features=3072, out_features=768, bias=True)
2024-05-22 01:41:23 [INFO ]              (LayerNorm): LayerNorm((768,), eps=1e-12, elementwise_affine=True)
2024-05-22 01:41:23 [INFO ]              (dropout): Dropout(p=0.1, inplace=False)
2024-05-22 01:41:23 [INFO ]            )
2024-05-22 01:41:23 [INFO ]          )
2024-05-22 01:41:23 [INFO ]          (8): BertLayer(
2024-05-22 01:41:23 [INFO ]            (attention): BertAttention(
2024-05-22 01:41:23 [INFO ]              (self): BertSelfAttention(
2024-05-22 01:41:23 [INFO ]                (query): Linear(in_features=768, out_features=768, bias=True)
2024-05-22 01:41:23 [INFO ]                (key): Linear(in_features=768, out_features=768, bias=True)
2024-05-22 01:41:23 [INFO ]                (value): Linear(in_features=768, out_features=768, bias=True)
2024-05-22 01:41:23 [INFO ]                (dropout): Dropout(p=0.1, inplace=False)
2024-05-22 01:41:23 [INFO ]              )
2024-05-22 01:41:23 [INFO ]              (output): BertSelfOutput(
2024-05-22 01:41:23 [INFO ]                (dense): Linear(in_features=768, out_features=768, bias=True)
2024-05-22 01:41:23 [INFO ]                (LayerNorm): LayerNorm((768,), eps=1e-12, elementwise_affine=True)
2024-05-22 01:41:23 [INFO ]                (dropout): Dropout(p=0.1, inplace=False)
2024-05-22 01:41:23 [INFO ]              )
2024-05-22 01:41:23 [INFO ]            )
2024-05-22 01:41:23 [INFO ]            (intermediate): BertIntermediate(
2024-05-22 01:41:23 [INFO ]              (dense): Linear(in_features=768, out_features=3072, bias=True)
2024-05-22 01:41:23 [INFO ]              (intermediate_act_fn): GELUActivation()
2024-05-22 01:41:23 [INFO ]            )
2024-05-22 01:41:23 [INFO ]            (output): BertOutput(
2024-05-22 01:41:23 [INFO ]              (dense): Linear(in_features=3072, out_features=768, bias=True)
2024-05-22 01:41:23 [INFO ]              (LayerNorm): LayerNorm((768,), eps=1e-12, elementwise_affine=True)
2024-05-22 01:41:23 [INFO ]              (dropout): Dropout(p=0.1, inplace=False)
2024-05-22 01:41:23 [INFO ]            )
2024-05-22 01:41:23 [INFO ]          )
2024-05-22 01:41:23 [INFO ]          (9): BertLayer(
2024-05-22 01:41:23 [INFO ]            (attention): BertAttention(
2024-05-22 01:41:23 [INFO ]              (self): BertSelfAttention(
2024-05-22 01:41:23 [INFO ]                (query): Linear(in_features=768, out_features=768, bias=True)
2024-05-22 01:41:23 [INFO ]                (key): Linear(in_features=768, out_features=768, bias=True)
2024-05-22 01:41:23 [INFO ]                (value): Linear(in_features=768, out_features=768, bias=True)
2024-05-22 01:41:23 [INFO ]                (dropout): Dropout(p=0.1, inplace=False)
2024-05-22 01:41:23 [INFO ]              )
2024-05-22 01:41:23 [INFO ]              (output): BertSelfOutput(
2024-05-22 01:41:23 [INFO ]                (dense): Linear(in_features=768, out_features=768, bias=True)
2024-05-22 01:41:23 [INFO ]                (LayerNorm): LayerNorm((768,), eps=1e-12, elementwise_affine=True)
2024-05-22 01:41:23 [INFO ]                (dropout): Dropout(p=0.1, inplace=False)
2024-05-22 01:41:23 [INFO ]              )
2024-05-22 01:41:23 [INFO ]            )
2024-05-22 01:41:23 [INFO ]            (intermediate): BertIntermediate(
2024-05-22 01:41:23 [INFO ]              (dense): Linear(in_features=768, out_features=3072, bias=True)
2024-05-22 01:41:23 [INFO ]              (intermediate_act_fn): GELUActivation()
2024-05-22 01:41:23 [INFO ]            )
2024-05-22 01:41:23 [INFO ]            (output): BertOutput(
2024-05-22 01:41:23 [INFO ]              (dense): Linear(in_features=3072, out_features=768, bias=True)
2024-05-22 01:41:23 [INFO ]              (LayerNorm): LayerNorm((768,), eps=1e-12, elementwise_affine=True)
2024-05-22 01:41:23 [INFO ]              (dropout): Dropout(p=0.1, inplace=False)
2024-05-22 01:41:23 [INFO ]            )
2024-05-22 01:41:23 [INFO ]          )
2024-05-22 01:41:23 [INFO ]          (10): BertLayer(
2024-05-22 01:41:23 [INFO ]            (attention): BertAttention(
2024-05-22 01:41:23 [INFO ]              (self): BertSelfAttention(
2024-05-22 01:41:23 [INFO ]                (query): Linear(in_features=768, out_features=768, bias=True)
2024-05-22 01:41:23 [INFO ]                (key): Linear(in_features=768, out_features=768, bias=True)
2024-05-22 01:41:23 [INFO ]                (value): Linear(in_features=768, out_features=768, bias=True)
2024-05-22 01:41:23 [INFO ]                (dropout): Dropout(p=0.1, inplace=False)
2024-05-22 01:41:23 [INFO ]              )
2024-05-22 01:41:23 [INFO ]              (output): BertSelfOutput(
2024-05-22 01:41:23 [INFO ]                (dense): Linear(in_features=768, out_features=768, bias=True)
2024-05-22 01:41:23 [INFO ]                (LayerNorm): LayerNorm((768,), eps=1e-12, elementwise_affine=True)
2024-05-22 01:41:23 [INFO ]                (dropout): Dropout(p=0.1, inplace=False)
2024-05-22 01:41:23 [INFO ]              )
2024-05-22 01:41:23 [INFO ]            )
2024-05-22 01:41:23 [INFO ]            (intermediate): BertIntermediate(
2024-05-22 01:41:23 [INFO ]              (dense): Linear(in_features=768, out_features=3072, bias=True)
2024-05-22 01:41:23 [INFO ]              (intermediate_act_fn): GELUActivation()
2024-05-22 01:41:23 [INFO ]            )
2024-05-22 01:41:23 [INFO ]            (output): BertOutput(
2024-05-22 01:41:23 [INFO ]              (dense): Linear(in_features=3072, out_features=768, bias=True)
2024-05-22 01:41:23 [INFO ]              (LayerNorm): LayerNorm((768,), eps=1e-12, elementwise_affine=True)
2024-05-22 01:41:23 [INFO ]              (dropout): Dropout(p=0.1, inplace=False)
2024-05-22 01:41:23 [INFO ]            )
2024-05-22 01:41:23 [INFO ]          )
2024-05-22 01:41:23 [INFO ]          (11): BertLayer(
2024-05-22 01:41:23 [INFO ]            (attention): BertAttention(
2024-05-22 01:41:23 [INFO ]              (self): BertSelfAttention(
2024-05-22 01:41:23 [INFO ]                (query): Linear(in_features=768, out_features=768, bias=True)
2024-05-22 01:41:23 [INFO ]                (key): Linear(in_features=768, out_features=768, bias=True)
2024-05-22 01:41:23 [INFO ]                (value): Linear(in_features=768, out_features=768, bias=True)
2024-05-22 01:41:23 [INFO ]                (dropout): Dropout(p=0.1, inplace=False)
2024-05-22 01:41:23 [INFO ]              )
2024-05-22 01:41:23 [INFO ]              (output): BertSelfOutput(
2024-05-22 01:41:23 [INFO ]                (dense): Linear(in_features=768, out_features=768, bias=True)
2024-05-22 01:41:23 [INFO ]                (LayerNorm): LayerNorm((768,), eps=1e-12, elementwise_affine=True)
2024-05-22 01:41:23 [INFO ]                (dropout): Dropout(p=0.1, inplace=False)
2024-05-22 01:41:23 [INFO ]              )
2024-05-22 01:41:23 [INFO ]            )
2024-05-22 01:41:23 [INFO ]            (intermediate): BertIntermediate(
2024-05-22 01:41:23 [INFO ]              (dense): Linear(in_features=768, out_features=3072, bias=True)
2024-05-22 01:41:23 [INFO ]              (intermediate_act_fn): GELUActivation()
2024-05-22 01:41:23 [INFO ]            )
2024-05-22 01:41:23 [INFO ]            (output): BertOutput(
2024-05-22 01:41:23 [INFO ]              (dense): Linear(in_features=3072, out_features=768, bias=True)
2024-05-22 01:41:23 [INFO ]              (LayerNorm): LayerNorm((768,), eps=1e-12, elementwise_affine=True)
2024-05-22 01:41:23 [INFO ]              (dropout): Dropout(p=0.1, inplace=False)
2024-05-22 01:41:23 [INFO ]            )
2024-05-22 01:41:23 [INFO ]          )
2024-05-22 01:41:23 [INFO ]        )
2024-05-22 01:41:23 [INFO ]      )
2024-05-22 01:41:23 [INFO ]      (pooler): BertPooler(
2024-05-22 01:41:23 [INFO ]        (dense): Linear(in_features=768, out_features=768, bias=True)
2024-05-22 01:41:23 [INFO ]        (activation): Tanh()
2024-05-22 01:41:23 [INFO ]      )
2024-05-22 01:41:23 [INFO ]    )
2024-05-22 01:41:23 [INFO ]    (classifier): MLP(
2024-05-22 01:41:23 [INFO ]      (output_layer): Linear(in_features=300, out_features=2, bias=True)
2024-05-22 01:41:23 [INFO ]      (AF): Tanh()
2024-05-22 01:41:23 [INFO ]      (dropout): Dropout(p=0.1, inplace=False)
2024-05-22 01:41:23 [INFO ]      (hidden_layers): ModuleList(
2024-05-22 01:41:23 [INFO ]        (0): Linear(in_features=768, out_features=300, bias=True)
2024-05-22 01:41:23 [INFO ]        (1): Dropout(p=0.1, inplace=False)
2024-05-22 01:41:23 [INFO ]        (2): Tanh()
2024-05-22 01:41:23 [INFO ]        (3): Linear(in_features=300, out_features=300, bias=True)
2024-05-22 01:41:23 [INFO ]        (4): Dropout(p=0.1, inplace=False)
2024-05-22 01:41:23 [INFO ]        (5): Tanh()
2024-05-22 01:41:23 [INFO ]      )
2024-05-22 01:41:23 [INFO ]      (criterion): CrossEntropyLoss()
2024-05-22 01:41:23 [INFO ]    )
2024-05-22 01:41:23 [INFO ]    (criterion): CrossEntropyLoss()
2024-05-22 01:41:23 [INFO ]  )
2024-05-22 01:41:23 [INFO ]  Total number of parameters: 108631874 
…
- This IS NOT expected if you are initializing BertModel from the checkpoint of a model that you expect to be exactly identical (initializing a BertForSequenceClassification model from a BertForSequenceClassification model).
2024-05-22 02:21:12 [INFO ]  Validation accuracy: 82.07	macro_fscore: 69.76	micro_fscore: 82.07	TPR_GAP: 2.68	FPR_GAP: 2.68	PPR_GAP: 1.65	
2024-05-22 02:21:12 [INFO ]  Test accuracy: 89.94	macro_fscore: 86.66	micro_fscore: 89.94	TPR_GAP: 4.47	FPR_GAP: 4.47	PPR_GAP: 6.37	
2024-05-22 02:21:12 [INFO ]  Model Trained!
2024-05-22 02:21:12 [INFO ]  Run LEACE
2024-05-22 02:21:13 [INFO ]  MLP( 
2024-05-22 02:21:13 [INFO ]    (output_layer): Linear(in_features=300, out_features=2, bias=True)
2024-05-22 02:21:13 [INFO ]    (AF): Tanh()
2024-05-22 02:21:13 [INFO ]    (dropout): Dropout(p=0.1, inplace=False)
2024-05-22 02:21:13 [INFO ]    (hidden_layers): ModuleList(
2024-05-22 02:21:13 [INFO ]      (0): Linear(in_features=768, out_features=300, bias=True)
2024-05-22 02:21:13 [INFO ]      (1): Dropout(p=0.1, inplace=False)
2024-05-22 02:21:13 [INFO ]      (2): Tanh()
2024-05-22 02:21:13 [INFO ]      (3): Linear(in_features=300, out_features=300, bias=True)
2024-05-22 02:21:13 [INFO ]      (4): Dropout(p=0.1, inplace=False)
2024-05-22 02:21:13 [INFO ]      (5): Tanh()
2024-05-22 02:21:13 [INFO ]    )
2024-05-22 02:21:13 [INFO ]    (criterion): CrossEntropyLoss()
2024-05-22 02:21:13 [INFO ]  )
2024-05-22 02:21:13 [INFO ]  Total number of parameters: 321602 

2024-05-22 02:21:14 [INFO ]  BERTClassifierLeace( 
2024-05-22 02:21:14 [INFO ]    (bert): BertModel(
2024-05-22 02:21:14 [INFO ]      (embeddings): BertEmbeddings(
2024-05-22 02:21:14 [INFO ]        (word_embeddings): Embedding(28996, 768, padding_idx=0)
2024-05-22 02:21:14 [INFO ]        (position_embeddings): Embedding(512, 768)
2024-05-22 02:21:14 [INFO ]        (token_type_embeddings): Embedding(2, 768)
2024-05-22 02:21:14 [INFO ]        (LayerNorm): LayerNorm((768,), eps=1e-12, elementwise_affine=True)
2024-05-22 02:21:14 [INFO ]        (dropout): Dropout(p=0.1, inplace=False)
2024-05-22 02:21:14 [INFO ]      )
2024-05-22 02:21:14 [INFO ]      (encoder): BertEncoder(
2024-05-22 02:21:14 [INFO ]        (layer): ModuleList(
2024-05-22 02:21:14 [INFO ]          (0): BertLayer(
2024-05-22 02:21:14 [INFO ]            (attention): BertAttention(
2024-05-22 02:21:14 [INFO ]              (self): BertSelfAttention(
2024-05-22 02:21:14 [INFO ]                (query): Linear(in_features=768, out_features=768, bias=True)
2024-05-22 02:21:14 [INFO ]                (key): Linear(in_features=768, out_features=768, bias=True)
2024-05-22 02:21:14 [INFO ]                (value): Linear(in_features=768, out_features=768, bias=True)
2024-05-22 02:21:14 [INFO ]                (dropout): Dropout(p=0.1, inplace=False)
2024-05-22 02:21:14 [INFO ]              )
2024-05-22 02:21:14 [INFO ]              (output): BertSelfOutput(
2024-05-22 02:21:14 [INFO ]                (dense): Linear(in_features=768, out_features=768, bias=True)
2024-05-22 02:21:14 [INFO ]                (LayerNorm): LayerNorm((768,), eps=1e-12, elementwise_affine=True)
2024-05-22 02:21:14 [INFO ]                (dropout): Dropout(p=0.1, inplace=False)
2024-05-22 02:21:14 [INFO ]              )
2024-05-22 02:21:14 [INFO ]            )
2024-05-22 02:21:14 [INFO ]            (intermediate): BertIntermediate(
2024-05-22 02:21:14 [INFO ]              (dense): Linear(in_features=768, out_features=3072, bias=True)
2024-05-22 02:21:14 [INFO ]              (intermediate_act_fn): GELUActivation()
2024-05-22 02:21:14 [INFO ]            )
2024-05-22 02:21:14 [INFO ]            (output): BertOutput(
2024-05-22 02:21:14 [INFO ]              (dense): Linear(in_features=3072, out_features=768, bias=True)
2024-05-22 02:21:14 [INFO ]              (LayerNorm): LayerNorm((768,), eps=1e-12, elementwise_affine=True)
2024-05-22 02:21:14 [INFO ]              (dropout): Dropout(p=0.1, inplace=False)
2024-05-22 02:21:14 [INFO ]            )
2024-05-22 02:21:14 [INFO ]          )
2024-05-22 02:21:14 [INFO ]          (1): BertLayer(
2024-05-22 02:21:14 [INFO ]            (attention): BertAttention(
2024-05-22 02:21:14 [INFO ]              (self): BertSelfAttention(
2024-05-22 02:21:14 [INFO ]                (query): Linear(in_features=768, out_features=768, bias=True)
2024-05-22 02:21:14 [INFO ]                (key): Linear(in_features=768, out_features=768, bias=True)
2024-05-22 02:21:14 [INFO ]                (value): Linear(in_features=768, out_features=768, bias=True)
2024-05-22 02:21:14 [INFO ]                (dropout): Dropout(p=0.1, inplace=False)
2024-05-22 02:21:14 [INFO ]              )
2024-05-22 02:21:14 [INFO ]              (output): BertSelfOutput(
2024-05-22 02:21:14 [INFO ]                (dense): Linear(in_features=768, out_features=768, bias=True)
2024-05-22 02:21:14 [INFO ]                (LayerNorm): LayerNorm((768,), eps=1e-12, elementwise_affine=True)
2024-05-22 02:21:14 [INFO ]                (dropout): Dropout(p=0.1, inplace=False)
2024-05-22 02:21:14 [INFO ]              )
2024-05-22 02:21:14 [INFO ]            )
2024-05-22 02:21:14 [INFO ]            (intermediate): BertIntermediate(
2024-05-22 02:21:14 [INFO ]              (dense): Linear(in_features=768, out_features=3072, bias=True)
2024-05-22 02:21:14 [INFO ]              (intermediate_act_fn): GELUActivation()
2024-05-22 02:21:14 [INFO ]            )
2024-05-22 02:21:14 [INFO ]            (output): BertOutput(
2024-05-22 02:21:14 [INFO ]              (dense): Linear(in_features=3072, out_features=768, bias=True)
2024-05-22 02:21:14 [INFO ]              (LayerNorm): LayerNorm((768,), eps=1e-12, elementwise_affine=True)
2024-05-22 02:21:14 [INFO ]              (dropout): Dropout(p=0.1, inplace=False)
2024-05-22 02:21:14 [INFO ]            )
2024-05-22 02:21:14 [INFO ]          )
2024-05-22 02:21:14 [INFO ]          (2): BertLayer(
2024-05-22 02:21:14 [INFO ]            (attention): BertAttention(
2024-05-22 02:21:14 [INFO ]              (self): BertSelfAttention(
2024-05-22 02:21:14 [INFO ]                (query): Linear(in_features=768, out_features=768, bias=True)
2024-05-22 02:21:14 [INFO ]                (key): Linear(in_features=768, out_features=768, bias=True)
2024-05-22 02:21:14 [INFO ]                (value): Linear(in_features=768, out_features=768, bias=True)
2024-05-22 02:21:14 [INFO ]                (dropout): Dropout(p=0.1, inplace=False)
2024-05-22 02:21:14 [INFO ]              )
2024-05-22 02:21:14 [INFO ]              (output): BertSelfOutput(
2024-05-22 02:21:14 [INFO ]                (dense): Linear(in_features=768, out_features=768, bias=True)
2024-05-22 02:21:14 [INFO ]                (LayerNorm): LayerNorm((768,), eps=1e-12, elementwise_affine=True)
2024-05-22 02:21:14 [INFO ]                (dropout): Dropout(p=0.1, inplace=False)
2024-05-22 02:21:14 [INFO ]              )
2024-05-22 02:21:14 [INFO ]            )
2024-05-22 02:21:14 [INFO ]            (intermediate): BertIntermediate(
2024-05-22 02:21:14 [INFO ]              (dense): Linear(in_features=768, out_features=3072, bias=True)
2024-05-22 02:21:14 [INFO ]              (intermediate_act_fn): GELUActivation()
2024-05-22 02:21:14 [INFO ]            )
2024-05-22 02:21:14 [INFO ]            (output): BertOutput(
2024-05-22 02:21:14 [INFO ]              (dense): Linear(in_features=3072, out_features=768, bias=True)
2024-05-22 02:21:14 [INFO ]              (LayerNorm): LayerNorm((768,), eps=1e-12, elementwise_affine=True)
2024-05-22 02:21:14 [INFO ]              (dropout): Dropout(p=0.1, inplace=False)
2024-05-22 02:21:14 [INFO ]            )
2024-05-22 02:21:14 [INFO ]          )
2024-05-22 02:21:14 [INFO ]          (3): BertLayer(
2024-05-22 02:21:14 [INFO ]            (attention): BertAttention(
2024-05-22 02:21:14 [INFO ]              (self): BertSelfAttention(
2024-05-22 02:21:14 [INFO ]                (query): Linear(in_features=768, out_features=768, bias=True)
2024-05-22 02:21:14 [INFO ]                (key): Linear(in_features=768, out_features=768, bias=True)
2024-05-22 02:21:14 [INFO ]                (value): Linear(in_features=768, out_features=768, bias=True)
2024-05-22 02:21:14 [INFO ]                (dropout): Dropout(p=0.1, inplace=False)
2024-05-22 02:21:14 [INFO ]              )
2024-05-22 02:21:14 [INFO ]              (output): BertSelfOutput(
2024-05-22 02:21:14 [INFO ]                (dense): Linear(in_features=768, out_features=768, bias=True)
2024-05-22 02:21:14 [INFO ]                (LayerNorm): LayerNorm((768,), eps=1e-12, elementwise_affine=True)
2024-05-22 02:21:14 [INFO ]                (dropout): Dropout(p=0.1, inplace=False)
2024-05-22 02:21:14 [INFO ]              )
2024-05-22 02:21:14 [INFO ]            )
2024-05-22 02:21:14 [INFO ]            (intermediate): BertIntermediate(
2024-05-22 02:21:14 [INFO ]              (dense): Linear(in_features=768, out_features=3072, bias=True)
2024-05-22 02:21:14 [INFO ]              (intermediate_act_fn): GELUActivation()
2024-05-22 02:21:14 [INFO ]            )
2024-05-22 02:21:14 [INFO ]            (output): BertOutput(
2024-05-22 02:21:14 [INFO ]              (dense): Linear(in_features=3072, out_features=768, bias=True)
2024-05-22 02:21:14 [INFO ]              (LayerNorm): LayerNorm((768,), eps=1e-12, elementwise_affine=True)
2024-05-22 02:21:14 [INFO ]              (dropout): Dropout(p=0.1, inplace=False)
2024-05-22 02:21:14 [INFO ]            )
2024-05-22 02:21:14 [INFO ]          )
2024-05-22 02:21:14 [INFO ]          (4): BertLayer(
2024-05-22 02:21:14 [INFO ]            (attention): BertAttention(
2024-05-22 02:21:14 [INFO ]              (self): BertSelfAttention(
2024-05-22 02:21:14 [INFO ]                (query): Linear(in_features=768, out_features=768, bias=True)
2024-05-22 02:21:14 [INFO ]                (key): Linear(in_features=768, out_features=768, bias=True)
2024-05-22 02:21:14 [INFO ]                (value): Linear(in_features=768, out_features=768, bias=True)
2024-05-22 02:21:14 [INFO ]                (dropout): Dropout(p=0.1, inplace=False)
2024-05-22 02:21:14 [INFO ]              )
2024-05-22 02:21:14 [INFO ]              (output): BertSelfOutput(
2024-05-22 02:21:14 [INFO ]                (dense): Linear(in_features=768, out_features=768, bias=True)
2024-05-22 02:21:14 [INFO ]                (LayerNorm): LayerNorm((768,), eps=1e-12, elementwise_affine=True)
2024-05-22 02:21:14 [INFO ]                (dropout): Dropout(p=0.1, inplace=False)
2024-05-22 02:21:14 [INFO ]              )
2024-05-22 02:21:14 [INFO ]            )
2024-05-22 02:21:14 [INFO ]            (intermediate): BertIntermediate(
2024-05-22 02:21:14 [INFO ]              (dense): Linear(in_features=768, out_features=3072, bias=True)
2024-05-22 02:21:14 [INFO ]              (intermediate_act_fn): GELUActivation()
2024-05-22 02:21:14 [INFO ]            )
2024-05-22 02:21:14 [INFO ]            (output): BertOutput(
2024-05-22 02:21:14 [INFO ]              (dense): Linear(in_features=3072, out_features=768, bias=True)
2024-05-22 02:21:14 [INFO ]              (LayerNorm): LayerNorm((768,), eps=1e-12, elementwise_affine=True)
2024-05-22 02:21:14 [INFO ]              (dropout): Dropout(p=0.1, inplace=False)
2024-05-22 02:21:14 [INFO ]            )
2024-05-22 02:21:14 [INFO ]          )
2024-05-22 02:21:14 [INFO ]          (5): BertLayer(
2024-05-22 02:21:14 [INFO ]            (attention): BertAttention(
2024-05-22 02:21:14 [INFO ]              (self): BertSelfAttention(
2024-05-22 02:21:14 [INFO ]                (query): Linear(in_features=768, out_features=768, bias=True)
2024-05-22 02:21:14 [INFO ]                (key): Linear(in_features=768, out_features=768, bias=True)
2024-05-22 02:21:14 [INFO ]                (value): Linear(in_features=768, out_features=768, bias=True)
2024-05-22 02:21:14 [INFO ]                (dropout): Dropout(p=0.1, inplace=False)
2024-05-22 02:21:14 [INFO ]              )
2024-05-22 02:21:14 [INFO ]              (output): BertSelfOutput(
2024-05-22 02:21:14 [INFO ]                (dense): Linear(in_features=768, out_features=768, bias=True)
2024-05-22 02:21:14 [INFO ]                (LayerNorm): LayerNorm((768,), eps=1e-12, elementwise_affine=True)
2024-05-22 02:21:14 [INFO ]                (dropout): Dropout(p=0.1, inplace=False)
2024-05-22 02:21:14 [INFO ]              )
2024-05-22 02:21:14 [INFO ]            )
2024-05-22 02:21:14 [INFO ]            (intermediate): BertIntermediate(
2024-05-22 02:21:14 [INFO ]              (dense): Linear(in_features=768, out_features=3072, bias=True)
2024-05-22 02:21:14 [INFO ]              (intermediate_act_fn): GELUActivation()
2024-05-22 02:21:14 [INFO ]            )
2024-05-22 02:21:14 [INFO ]            (output): BertOutput(
2024-05-22 02:21:14 [INFO ]              (dense): Linear(in_features=3072, out_features=768, bias=True)
2024-05-22 02:21:14 [INFO ]              (LayerNorm): LayerNorm((768,), eps=1e-12, elementwise_affine=True)
2024-05-22 02:21:14 [INFO ]              (dropout): Dropout(p=0.1, inplace=False)
2024-05-22 02:21:14 [INFO ]            )
2024-05-22 02:21:14 [INFO ]          )
2024-05-22 02:21:14 [INFO ]          (6): BertLayer(
2024-05-22 02:21:14 [INFO ]            (attention): BertAttention(
2024-05-22 02:21:14 [INFO ]              (self): BertSelfAttention(
2024-05-22 02:21:14 [INFO ]                (query): Linear(in_features=768, out_features=768, bias=True)
2024-05-22 02:21:14 [INFO ]                (key): Linear(in_features=768, out_features=768, bias=True)
2024-05-22 02:21:14 [INFO ]                (value): Linear(in_features=768, out_features=768, bias=True)
2024-05-22 02:21:14 [INFO ]                (dropout): Dropout(p=0.1, inplace=False)
2024-05-22 02:21:14 [INFO ]              )
2024-05-22 02:21:14 [INFO ]              (output): BertSelfOutput(
2024-05-22 02:21:14 [INFO ]                (dense): Linear(in_features=768, out_features=768, bias=True)
2024-05-22 02:21:14 [INFO ]                (LayerNorm): LayerNorm((768,), eps=1e-12, elementwise_affine=True)
2024-05-22 02:21:14 [INFO ]                (dropout): Dropout(p=0.1, inplace=False)
2024-05-22 02:21:14 [INFO ]              )
2024-05-22 02:21:14 [INFO ]            )
2024-05-22 02:21:14 [INFO ]            (intermediate): BertIntermediate(
2024-05-22 02:21:14 [INFO ]              (dense): Linear(in_features=768, out_features=3072, bias=True)
2024-05-22 02:21:14 [INFO ]              (intermediate_act_fn): GELUActivation()
2024-05-22 02:21:14 [INFO ]            )
2024-05-22 02:21:14 [INFO ]            (output): BertOutput(
2024-05-22 02:21:14 [INFO ]              (dense): Linear(in_features=3072, out_features=768, bias=True)
2024-05-22 02:21:14 [INFO ]              (LayerNorm): LayerNorm((768,), eps=1e-12, elementwise_affine=True)
2024-05-22 02:21:14 [INFO ]              (dropout): Dropout(p=0.1, inplace=False)
2024-05-22 02:21:14 [INFO ]            )
2024-05-22 02:21:14 [INFO ]          )
2024-05-22 02:21:14 [INFO ]          (7): BertLayer(
2024-05-22 02:21:14 [INFO ]            (attention): BertAttention(
2024-05-22 02:21:14 [INFO ]              (self): BertSelfAttention(
2024-05-22 02:21:14 [INFO ]                (query): Linear(in_features=768, out_features=768, bias=True)
2024-05-22 02:21:14 [INFO ]                (key): Linear(in_features=768, out_features=768, bias=True)
2024-05-22 02:21:14 [INFO ]                (value): Linear(in_features=768, out_features=768, bias=True)
2024-05-22 02:21:14 [INFO ]                (dropout): Dropout(p=0.1, inplace=False)
2024-05-22 02:21:14 [INFO ]              )
2024-05-22 02:21:14 [INFO ]              (output): BertSelfOutput(
2024-05-22 02:21:14 [INFO ]                (dense): Linear(in_features=768, out_features=768, bias=True)
2024-05-22 02:21:14 [INFO ]                (LayerNorm): LayerNorm((768,), eps=1e-12, elementwise_affine=True)
2024-05-22 02:21:14 [INFO ]                (dropout): Dropout(p=0.1, inplace=False)
2024-05-22 02:21:14 [INFO ]              )
2024-05-22 02:21:14 [INFO ]            )
2024-05-22 02:21:14 [INFO ]            (intermediate): BertIntermediate(
2024-05-22 02:21:14 [INFO ]              (dense): Linear(in_features=768, out_features=3072, bias=True)
2024-05-22 02:21:14 [INFO ]              (intermediate_act_fn): GELUActivation()
2024-05-22 02:21:14 [INFO ]            )
2024-05-22 02:21:14 [INFO ]            (output): BertOutput(
2024-05-22 02:21:14 [INFO ]              (dense): Linear(in_features=3072, out_features=768, bias=True)
2024-05-22 02:21:14 [INFO ]              (LayerNorm): LayerNorm((768,), eps=1e-12, elementwise_affine=True)
2024-05-22 02:21:14 [INFO ]              (dropout): Dropout(p=0.1, inplace=False)
2024-05-22 02:21:14 [INFO ]            )
2024-05-22 02:21:14 [INFO ]          )
2024-05-22 02:21:14 [INFO ]          (8): BertLayer(
2024-05-22 02:21:14 [INFO ]            (attention): BertAttention(
2024-05-22 02:21:14 [INFO ]              (self): BertSelfAttention(
2024-05-22 02:21:14 [INFO ]                (query): Linear(in_features=768, out_features=768, bias=True)
2024-05-22 02:21:14 [INFO ]                (key): Linear(in_features=768, out_features=768, bias=True)
2024-05-22 02:21:14 [INFO ]                (value): Linear(in_features=768, out_features=768, bias=True)
2024-05-22 02:21:14 [INFO ]                (dropout): Dropout(p=0.1, inplace=False)
2024-05-22 02:21:14 [INFO ]              )
2024-05-22 02:21:14 [INFO ]              (output): BertSelfOutput(
2024-05-22 02:21:14 [INFO ]                (dense): Linear(in_features=768, out_features=768, bias=True)
2024-05-22 02:21:14 [INFO ]                (LayerNorm): LayerNorm((768,), eps=1e-12, elementwise_affine=True)
2024-05-22 02:21:14 [INFO ]                (dropout): Dropout(p=0.1, inplace=False)
2024-05-22 02:21:14 [INFO ]              )
2024-05-22 02:21:14 [INFO ]            )
2024-05-22 02:21:14 [INFO ]            (intermediate): BertIntermediate(
2024-05-22 02:21:14 [INFO ]              (dense): Linear(in_features=768, out_features=3072, bias=True)
2024-05-22 02:21:14 [INFO ]              (intermediate_act_fn): GELUActivation()
2024-05-22 02:21:14 [INFO ]            )
2024-05-22 02:21:14 [INFO ]            (output): BertOutput(
2024-05-22 02:21:14 [INFO ]              (dense): Linear(in_features=3072, out_features=768, bias=True)
2024-05-22 02:21:14 [INFO ]              (LayerNorm): LayerNorm((768,), eps=1e-12, elementwise_affine=True)
2024-05-22 02:21:14 [INFO ]              (dropout): Dropout(p=0.1, inplace=False)
2024-05-22 02:21:14 [INFO ]            )
2024-05-22 02:21:14 [INFO ]          )
2024-05-22 02:21:14 [INFO ]          (9): BertLayer(
2024-05-22 02:21:14 [INFO ]            (attention): BertAttention(
2024-05-22 02:21:14 [INFO ]              (self): BertSelfAttention(
2024-05-22 02:21:14 [INFO ]                (query): Linear(in_features=768, out_features=768, bias=True)
2024-05-22 02:21:14 [INFO ]                (key): Linear(in_features=768, out_features=768, bias=True)
2024-05-22 02:21:14 [INFO ]                (value): Linear(in_features=768, out_features=768, bias=True)
2024-05-22 02:21:14 [INFO ]                (dropout): Dropout(p=0.1, inplace=False)
2024-05-22 02:21:14 [INFO ]              )
2024-05-22 02:21:14 [INFO ]              (output): BertSelfOutput(
2024-05-22 02:21:14 [INFO ]                (dense): Linear(in_features=768, out_features=768, bias=True)
2024-05-22 02:21:14 [INFO ]                (LayerNorm): LayerNorm((768,), eps=1e-12, elementwise_affine=True)
2024-05-22 02:21:14 [INFO ]                (dropout): Dropout(p=0.1, inplace=False)
2024-05-22 02:21:14 [INFO ]              )
2024-05-22 02:21:14 [INFO ]            )
2024-05-22 02:21:14 [INFO ]            (intermediate): BertIntermediate(
2024-05-22 02:21:14 [INFO ]              (dense): Linear(in_features=768, out_features=3072, bias=True)
2024-05-22 02:21:14 [INFO ]              (intermediate_act_fn): GELUActivation()
2024-05-22 02:21:14 [INFO ]            )
2024-05-22 02:21:14 [INFO ]            (output): BertOutput(
2024-05-22 02:21:14 [INFO ]              (dense): Linear(in_features=3072, out_features=768, bias=True)
2024-05-22 02:21:14 [INFO ]              (LayerNorm): LayerNorm((768,), eps=1e-12, elementwise_affine=True)
2024-05-22 02:21:14 [INFO ]              (dropout): Dropout(p=0.1, inplace=False)
2024-05-22 02:21:14 [INFO ]            )
2024-05-22 02:21:14 [INFO ]          )
2024-05-22 02:21:14 [INFO ]          (10): BertLayer(
2024-05-22 02:21:14 [INFO ]            (attention): BertAttention(
2024-05-22 02:21:14 [INFO ]              (self): BertSelfAttention(
2024-05-22 02:21:14 [INFO ]                (query): Linear(in_features=768, out_features=768, bias=True)
2024-05-22 02:21:14 [INFO ]                (key): Linear(in_features=768, out_features=768, bias=True)
2024-05-22 02:21:14 [INFO ]                (value): Linear(in_features=768, out_features=768, bias=True)
2024-05-22 02:21:14 [INFO ]                (dropout): Dropout(p=0.1, inplace=False)
2024-05-22 02:21:14 [INFO ]              )
2024-05-22 02:21:14 [INFO ]              (output): BertSelfOutput(
2024-05-22 02:21:14 [INFO ]                (dense): Linear(in_features=768, out_features=768, bias=True)
2024-05-22 02:21:14 [INFO ]                (LayerNorm): LayerNorm((768,), eps=1e-12, elementwise_affine=True)
2024-05-22 02:21:14 [INFO ]                (dropout): Dropout(p=0.1, inplace=False)
2024-05-22 02:21:14 [INFO ]              )
2024-05-22 02:21:14 [INFO ]            )
2024-05-22 02:21:14 [INFO ]            (intermediate): BertIntermediate(
2024-05-22 02:21:14 [INFO ]              (dense): Linear(in_features=768, out_features=3072, bias=True)
2024-05-22 02:21:14 [INFO ]              (intermediate_act_fn): GELUActivation()
2024-05-22 02:21:14 [INFO ]            )
2024-05-22 02:21:14 [INFO ]            (output): BertOutput(
2024-05-22 02:21:14 [INFO ]              (dense): Linear(in_features=3072, out_features=768, bias=True)
2024-05-22 02:21:14 [INFO ]              (LayerNorm): LayerNorm((768,), eps=1e-12, elementwise_affine=True)
2024-05-22 02:21:14 [INFO ]              (dropout): Dropout(p=0.1, inplace=False)
2024-05-22 02:21:14 [INFO ]            )
2024-05-22 02:21:14 [INFO ]          )
2024-05-22 02:21:14 [INFO ]          (11): BertLayer(
2024-05-22 02:21:14 [INFO ]            (attention): BertAttention(
2024-05-22 02:21:14 [INFO ]              (self): BertSelfAttention(
2024-05-22 02:21:14 [INFO ]                (query): Linear(in_features=768, out_features=768, bias=True)
2024-05-22 02:21:14 [INFO ]                (key): Linear(in_features=768, out_features=768, bias=True)
2024-05-22 02:21:14 [INFO ]                (value): Linear(in_features=768, out_features=768, bias=True)
2024-05-22 02:21:14 [INFO ]                (dropout): Dropout(p=0.1, inplace=False)
2024-05-22 02:21:14 [INFO ]              )
2024-05-22 02:21:14 [INFO ]              (output): BertSelfOutput(
2024-05-22 02:21:14 [INFO ]                (dense): Linear(in_features=768, out_features=768, bias=True)
2024-05-22 02:21:14 [INFO ]                (LayerNorm): LayerNorm((768,), eps=1e-12, elementwise_affine=True)
2024-05-22 02:21:14 [INFO ]                (dropout): Dropout(p=0.1, inplace=False)
2024-05-22 02:21:14 [INFO ]              )
2024-05-22 02:21:14 [INFO ]            )
2024-05-22 02:21:14 [INFO ]            (intermediate): BertIntermediate(
2024-05-22 02:21:14 [INFO ]              (dense): Linear(in_features=768, out_features=3072, bias=True)
2024-05-22 02:21:14 [INFO ]              (intermediate_act_fn): GELUActivation()
2024-05-22 02:21:14 [INFO ]            )
2024-05-22 02:21:14 [INFO ]            (output): BertOutput(
2024-05-22 02:21:14 [INFO ]              (dense): Linear(in_features=3072, out_features=768, bias=True)
2024-05-22 02:21:14 [INFO ]              (LayerNorm): LayerNorm((768,), eps=1e-12, elementwise_affine=True)
2024-05-22 02:21:14 [INFO ]              (dropout): Dropout(p=0.1, inplace=False)
2024-05-22 02:21:14 [INFO ]            )
2024-05-22 02:21:14 [INFO ]          )
2024-05-22 02:21:14 [INFO ]        )
2024-05-22 02:21:14 [INFO ]      )
2024-05-22 02:21:14 [INFO ]      (pooler): BertPooler(
2024-05-22 02:21:14 [INFO ]        (dense): Linear(in_features=768, out_features=768, bias=True)
2024-05-22 02:21:14 [INFO ]        (activation): Tanh()
2024-05-22 02:21:14 [INFO ]      )
2024-05-22 02:21:14 [INFO ]    )
2024-05-22 02:21:14 [INFO ]    (classifier): MLP(
2024-05-22 02:21:14 [INFO ]      (output_layer): Linear(in_features=300, out_features=2, bias=True)
2024-05-22 02:21:14 [INFO ]      (AF): Tanh()
2024-05-22 02:21:14 [INFO ]      (dropout): Dropout(p=0.1, inplace=False)
2024-05-22 02:21:14 [INFO ]      (hidden_layers): ModuleList(
2024-05-22 02:21:14 [INFO ]        (0): Linear(in_features=768, out_features=300, bias=True)
2024-05-22 02:21:14 [INFO ]        (1): Dropout(p=0.1, inplace=False)
2024-05-22 02:21:14 [INFO ]        (2): Tanh()
2024-05-22 02:21:14 [INFO ]        (3): Linear(in_features=300, out_features=300, bias=True)
2024-05-22 02:21:14 [INFO ]        (4): Dropout(p=0.1, inplace=False)
2024-05-22 02:21:14 [INFO ]        (5): Tanh()
2024-05-22 02:21:14 [INFO ]      )
2024-05-22 02:21:14 [INFO ]      (criterion): CrossEntropyLoss()
2024-05-22 02:21:14 [INFO ]    )
2024-05-22 02:21:14 [INFO ]    (criterion): CrossEntropyLoss()
2024-05-22 02:21:14 [INFO ]  )
2024-05-22 02:21:14 [INFO ]  Total number of parameters: 108631874 

Number of trainable parameters: 108310272
2024-05-22 02:21:14 [INFO ]  MLPLeace( 
2024-05-22 02:21:14 [INFO ]    (output_layer): Linear(in_features=300, out_features=2, bias=True)
2024-05-22 02:21:14 [INFO ]    (AF): Tanh()
2024-05-22 02:21:14 [INFO ]    (dropout): Dropout(p=0.1, inplace=False)
2024-05-22 02:21:14 [INFO ]    (hidden_layers): ModuleList(
2024-05-22 02:21:14 [INFO ]      (0): Linear(in_features=768, out_features=300, bias=True)
2024-05-22 02:21:14 [INFO ]      (1): Dropout(p=0.1, inplace=False)
2024-05-22 02:21:14 [INFO ]      (2): Tanh()
2024-05-22 02:21:14 [INFO ]      (3): Linear(in_features=300, out_features=300, bias=True)
2024-05-22 02:21:14 [INFO ]      (4): Dropout(p=0.1, inplace=False)
2024-05-22 02:21:14 [INFO ]      (5): Tanh()
2024-05-22 02:21:14 [INFO ]    )
2024-05-22 02:21:14 [INFO ]    (criterion): CrossEntropyLoss()
2024-05-22 02:21:14 [INFO ]  )
2024-05-22 02:21:14 [INFO ]  Total number of parameters: 321602 

2024-05-22 02:21:14 [INFO ]  BERTClassifierLeace( 
2024-05-22 02:21:14 [INFO ]    (bert): BertModel(
2024-05-22 02:21:14 [INFO ]      (embeddings): BertEmbeddings(
2024-05-22 02:21:14 [INFO ]        (word_embeddings): Embedding(28996, 768, padding_idx=0)
2024-05-22 02:21:14 [INFO ]        (position_embeddings): Embedding(512, 768)
2024-05-22 02:21:14 [INFO ]        (token_type_embeddings): Embedding(2, 768)
2024-05-22 02:21:14 [INFO ]        (LayerNorm): LayerNorm((768,), eps=1e-12, elementwise_affine=True)
2024-05-22 02:21:14 [INFO ]        (dropout): Dropout(p=0.1, inplace=False)
2024-05-22 02:21:14 [INFO ]      )
2024-05-22 02:21:14 [INFO ]      (encoder): BertEncoder(
2024-05-22 02:21:14 [INFO ]        (layer): ModuleList(
2024-05-22 02:21:14 [INFO ]          (0): BertLayer(
2024-05-22 02:21:14 [INFO ]            (attention): BertAttention(
2024-05-22 02:21:14 [INFO ]              (self): BertSelfAttention(
2024-05-22 02:21:14 [INFO ]                (query): Linear(in_features=768, out_features=768, bias=True)
2024-05-22 02:21:14 [INFO ]                (key): Linear(in_features=768, out_features=768, bias=True)
2024-05-22 02:21:14 [INFO ]                (value): Linear(in_features=768, out_features=768, bias=True)
2024-05-22 02:21:14 [INFO ]                (dropout): Dropout(p=0.1, inplace=False)
2024-05-22 02:21:14 [INFO ]              )
2024-05-22 02:21:14 [INFO ]              (output): BertSelfOutput(
2024-05-22 02:21:14 [INFO ]                (dense): Linear(in_features=768, out_features=768, bias=True)
2024-05-22 02:21:14 [INFO ]                (LayerNorm): LayerNorm((768,), eps=1e-12, elementwise_affine=True)
2024-05-22 02:21:14 [INFO ]                (dropout): Dropout(p=0.1, inplace=False)
2024-05-22 02:21:14 [INFO ]              )
2024-05-22 02:21:14 [INFO ]            )
2024-05-22 02:21:14 [INFO ]            (intermediate): BertIntermediate(
2024-05-22 02:21:14 [INFO ]              (dense): Linear(in_features=768, out_features=3072, bias=True)
2024-05-22 02:21:14 [INFO ]              (intermediate_act_fn): GELUActivation()
2024-05-22 02:21:14 [INFO ]            )
2024-05-22 02:21:14 [INFO ]            (output): BertOutput(
2024-05-22 02:21:14 [INFO ]              (dense): Linear(in_features=3072, out_features=768, bias=True)
2024-05-22 02:21:14 [INFO ]              (LayerNorm): LayerNorm((768,), eps=1e-12, elementwise_affine=True)
2024-05-22 02:21:14 [INFO ]              (dropout): Dropout(p=0.1, inplace=False)
2024-05-22 02:21:14 [INFO ]            )
2024-05-22 02:21:14 [INFO ]          )
2024-05-22 02:21:14 [INFO ]          (1): BertLayer(
2024-05-22 02:21:14 [INFO ]            (attention): BertAttention(
2024-05-22 02:21:14 [INFO ]              (self): BertSelfAttention(
2024-05-22 02:21:14 [INFO ]                (query): Linear(in_features=768, out_features=768, bias=True)
2024-05-22 02:21:14 [INFO ]                (key): Linear(in_features=768, out_features=768, bias=True)
2024-05-22 02:21:14 [INFO ]                (value): Linear(in_features=768, out_features=768, bias=True)
2024-05-22 02:21:14 [INFO ]                (dropout): Dropout(p=0.1, inplace=False)
2024-05-22 02:21:14 [INFO ]              )
2024-05-22 02:21:14 [INFO ]              (output): BertSelfOutput(
2024-05-22 02:21:14 [INFO ]                (dense): Linear(in_features=768, out_features=768, bias=True)
2024-05-22 02:21:14 [INFO ]                (LayerNorm): LayerNorm((768,), eps=1e-12, elementwise_affine=True)
2024-05-22 02:21:14 [INFO ]                (dropout): Dropout(p=0.1, inplace=False)
2024-05-22 02:21:14 [INFO ]              )
2024-05-22 02:21:14 [INFO ]            )
2024-05-22 02:21:14 [INFO ]            (intermediate): BertIntermediate(
2024-05-22 02:21:14 [INFO ]              (dense): Linear(in_features=768, out_features=3072, bias=True)
2024-05-22 02:21:14 [INFO ]              (intermediate_act_fn): GELUActivation()
2024-05-22 02:21:14 [INFO ]            )
2024-05-22 02:21:14 [INFO ]            (output): BertOutput(
2024-05-22 02:21:14 [INFO ]              (dense): Linear(in_features=3072, out_features=768, bias=True)
2024-05-22 02:21:14 [INFO ]              (LayerNorm): LayerNorm((768,), eps=1e-12, elementwise_affine=True)
2024-05-22 02:21:14 [INFO ]              (dropout): Dropout(p=0.1, inplace=False)
2024-05-22 02:21:14 [INFO ]            )
2024-05-22 02:21:14 [INFO ]          )
2024-05-22 02:21:14 [INFO ]          (2): BertLayer(
2024-05-22 02:21:14 [INFO ]            (attention): BertAttention(
2024-05-22 02:21:14 [INFO ]              (self): BertSelfAttention(
2024-05-22 02:21:14 [INFO ]                (query): Linear(in_features=768, out_features=768, bias=True)
2024-05-22 02:21:14 [INFO ]                (key): Linear(in_features=768, out_features=768, bias=True)
2024-05-22 02:21:14 [INFO ]                (value): Linear(in_features=768, out_features=768, bias=True)
2024-05-22 02:21:14 [INFO ]                (dropout): Dropout(p=0.1, inplace=False)
2024-05-22 02:21:14 [INFO ]              )
2024-05-22 02:21:14 [INFO ]              (output): BertSelfOutput(
2024-05-22 02:21:14 [INFO ]                (dense): Linear(in_features=768, out_features=768, bias=True)
2024-05-22 02:21:14 [INFO ]                (LayerNorm): LayerNorm((768,), eps=1e-12, elementwise_affine=True)
2024-05-22 02:21:14 [INFO ]                (dropout): Dropout(p=0.1, inplace=False)
2024-05-22 02:21:14 [INFO ]              )
2024-05-22 02:21:14 [INFO ]            )
2024-05-22 02:21:14 [INFO ]            (intermediate): BertIntermediate(
2024-05-22 02:21:14 [INFO ]              (dense): Linear(in_features=768, out_features=3072, bias=True)
2024-05-22 02:21:14 [INFO ]              (intermediate_act_fn): GELUActivation()
2024-05-22 02:21:14 [INFO ]            )
2024-05-22 02:21:14 [INFO ]            (output): BertOutput(
2024-05-22 02:21:14 [INFO ]              (dense): Linear(in_features=3072, out_features=768, bias=True)
2024-05-22 02:21:14 [INFO ]              (LayerNorm): LayerNorm((768,), eps=1e-12, elementwise_affine=True)
2024-05-22 02:21:14 [INFO ]              (dropout): Dropout(p=0.1, inplace=False)
2024-05-22 02:21:14 [INFO ]            )
2024-05-22 02:21:14 [INFO ]          )
2024-05-22 02:21:14 [INFO ]          (3): BertLayer(
2024-05-22 02:21:14 [INFO ]            (attention): BertAttention(
2024-05-22 02:21:14 [INFO ]              (self): BertSelfAttention(
2024-05-22 02:21:14 [INFO ]                (query): Linear(in_features=768, out_features=768, bias=True)
2024-05-22 02:21:14 [INFO ]                (key): Linear(in_features=768, out_features=768, bias=True)
2024-05-22 02:21:14 [INFO ]                (value): Linear(in_features=768, out_features=768, bias=True)
2024-05-22 02:21:14 [INFO ]                (dropout): Dropout(p=0.1, inplace=False)
2024-05-22 02:21:14 [INFO ]              )
2024-05-22 02:21:14 [INFO ]              (output): BertSelfOutput(
2024-05-22 02:21:14 [INFO ]                (dense): Linear(in_features=768, out_features=768, bias=True)
2024-05-22 02:21:14 [INFO ]                (LayerNorm): LayerNorm((768,), eps=1e-12, elementwise_affine=True)
2024-05-22 02:21:14 [INFO ]                (dropout): Dropout(p=0.1, inplace=False)
2024-05-22 02:21:14 [INFO ]              )
2024-05-22 02:21:14 [INFO ]            )
2024-05-22 02:21:14 [INFO ]            (intermediate): BertIntermediate(
2024-05-22 02:21:14 [INFO ]              (dense): Linear(in_features=768, out_features=3072, bias=True)
2024-05-22 02:21:14 [INFO ]              (intermediate_act_fn): GELUActivation()
2024-05-22 02:21:14 [INFO ]            )
2024-05-22 02:21:14 [INFO ]            (output): BertOutput(
2024-05-22 02:21:14 [INFO ]              (dense): Linear(in_features=3072, out_features=768, bias=True)
2024-05-22 02:21:14 [INFO ]              (LayerNorm): LayerNorm((768,), eps=1e-12, elementwise_affine=True)
2024-05-22 02:21:14 [INFO ]              (dropout): Dropout(p=0.1, inplace=False)
2024-05-22 02:21:14 [INFO ]            )
2024-05-22 02:21:14 [INFO ]          )
2024-05-22 02:21:14 [INFO ]          (4): BertLayer(
2024-05-22 02:21:14 [INFO ]            (attention): BertAttention(
2024-05-22 02:21:14 [INFO ]              (self): BertSelfAttention(
2024-05-22 02:21:14 [INFO ]                (query): Linear(in_features=768, out_features=768, bias=True)
2024-05-22 02:21:14 [INFO ]                (key): Linear(in_features=768, out_features=768, bias=True)
2024-05-22 02:21:14 [INFO ]                (value): Linear(in_features=768, out_features=768, bias=True)
2024-05-22 02:21:14 [INFO ]                (dropout): Dropout(p=0.1, inplace=False)
2024-05-22 02:21:14 [INFO ]              )
2024-05-22 02:21:14 [INFO ]              (output): BertSelfOutput(
2024-05-22 02:21:14 [INFO ]                (dense): Linear(in_features=768, out_features=768, bias=True)
2024-05-22 02:21:14 [INFO ]                (LayerNorm): LayerNorm((768,), eps=1e-12, elementwise_affine=True)
2024-05-22 02:21:14 [INFO ]                (dropout): Dropout(p=0.1, inplace=False)
2024-05-22 02:21:14 [INFO ]              )
2024-05-22 02:21:14 [INFO ]            )
2024-05-22 02:21:14 [INFO ]            (intermediate): BertIntermediate(
2024-05-22 02:21:14 [INFO ]              (dense): Linear(in_features=768, out_features=3072, bias=True)
2024-05-22 02:21:14 [INFO ]              (intermediate_act_fn): GELUActivation()
2024-05-22 02:21:14 [INFO ]            )
2024-05-22 02:21:14 [INFO ]            (output): BertOutput(
2024-05-22 02:21:14 [INFO ]              (dense): Linear(in_features=3072, out_features=768, bias=True)
2024-05-22 02:21:14 [INFO ]              (LayerNorm): LayerNorm((768,), eps=1e-12, elementwise_affine=True)
2024-05-22 02:21:14 [INFO ]              (dropout): Dropout(p=0.1, inplace=False)
2024-05-22 02:21:14 [INFO ]            )
2024-05-22 02:21:14 [INFO ]          )
2024-05-22 02:21:14 [INFO ]          (5): BertLayer(
2024-05-22 02:21:14 [INFO ]            (attention): BertAttention(
2024-05-22 02:21:14 [INFO ]              (self): BertSelfAttention(
2024-05-22 02:21:14 [INFO ]                (query): Linear(in_features=768, out_features=768, bias=True)
2024-05-22 02:21:14 [INFO ]                (key): Linear(in_features=768, out_features=768, bias=True)
2024-05-22 02:21:14 [INFO ]                (value): Linear(in_features=768, out_features=768, bias=True)
2024-05-22 02:21:14 [INFO ]                (dropout): Dropout(p=0.1, inplace=False)
2024-05-22 02:21:14 [INFO ]              )
2024-05-22 02:21:14 [INFO ]              (output): BertSelfOutput(
2024-05-22 02:21:14 [INFO ]                (dense): Linear(in_features=768, out_features=768, bias=True)
2024-05-22 02:21:14 [INFO ]                (LayerNorm): LayerNorm((768,), eps=1e-12, elementwise_affine=True)
2024-05-22 02:21:14 [INFO ]                (dropout): Dropout(p=0.1, inplace=False)
2024-05-22 02:21:14 [INFO ]              )
2024-05-22 02:21:14 [INFO ]            )
2024-05-22 02:21:14 [INFO ]            (intermediate): BertIntermediate(
2024-05-22 02:21:14 [INFO ]              (dense): Linear(in_features=768, out_features=3072, bias=True)
2024-05-22 02:21:14 [INFO ]              (intermediate_act_fn): GELUActivation()
2024-05-22 02:21:14 [INFO ]            )
2024-05-22 02:21:14 [INFO ]            (output): BertOutput(
2024-05-22 02:21:14 [INFO ]              (dense): Linear(in_features=3072, out_features=768, bias=True)
2024-05-22 02:21:14 [INFO ]              (LayerNorm): LayerNorm((768,), eps=1e-12, elementwise_affine=True)
2024-05-22 02:21:14 [INFO ]              (dropout): Dropout(p=0.1, inplace=False)
2024-05-22 02:21:14 [INFO ]            )
2024-05-22 02:21:14 [INFO ]          )
2024-05-22 02:21:14 [INFO ]          (6): BertLayer(
2024-05-22 02:21:14 [INFO ]            (attention): BertAttention(
2024-05-22 02:21:14 [INFO ]              (self): BertSelfAttention(
2024-05-22 02:21:14 [INFO ]                (query): Linear(in_features=768, out_features=768, bias=True)
2024-05-22 02:21:14 [INFO ]                (key): Linear(in_features=768, out_features=768, bias=True)
2024-05-22 02:21:14 [INFO ]                (value): Linear(in_features=768, out_features=768, bias=True)
2024-05-22 02:21:14 [INFO ]                (dropout): Dropout(p=0.1, inplace=False)
2024-05-22 02:21:14 [INFO ]              )
2024-05-22 02:21:14 [INFO ]              (output): BertSelfOutput(
2024-05-22 02:21:14 [INFO ]                (dense): Linear(in_features=768, out_features=768, bias=True)
2024-05-22 02:21:14 [INFO ]                (LayerNorm): LayerNorm((768,), eps=1e-12, elementwise_affine=True)
2024-05-22 02:21:14 [INFO ]                (dropout): Dropout(p=0.1, inplace=False)
2024-05-22 02:21:14 [INFO ]              )
2024-05-22 02:21:14 [INFO ]            )
2024-05-22 02:21:14 [INFO ]            (intermediate): BertIntermediate(
2024-05-22 02:21:14 [INFO ]              (dense): Linear(in_features=768, out_features=3072, bias=True)
2024-05-22 02:21:14 [INFO ]              (intermediate_act_fn): GELUActivation()
2024-05-22 02:21:14 [INFO ]            )
2024-05-22 02:21:14 [INFO ]            (output): BertOutput(
2024-05-22 02:21:14 [INFO ]              (dense): Linear(in_features=3072, out_features=768, bias=True)
2024-05-22 02:21:14 [INFO ]              (LayerNorm): LayerNorm((768,), eps=1e-12, elementwise_affine=True)
2024-05-22 02:21:14 [INFO ]              (dropout): Dropout(p=0.1, inplace=False)
2024-05-22 02:21:14 [INFO ]            )
2024-05-22 02:21:14 [INFO ]          )
2024-05-22 02:21:14 [INFO ]          (7): BertLayer(
2024-05-22 02:21:14 [INFO ]            (attention): BertAttention(
2024-05-22 02:21:14 [INFO ]              (self): BertSelfAttention(
2024-05-22 02:21:14 [INFO ]                (query): Linear(in_features=768, out_features=768, bias=True)
2024-05-22 02:21:14 [INFO ]                (key): Linear(in_features=768, out_features=768, bias=True)
2024-05-22 02:21:14 [INFO ]                (value): Linear(in_features=768, out_features=768, bias=True)
2024-05-22 02:21:14 [INFO ]                (dropout): Dropout(p=0.1, inplace=False)
2024-05-22 02:21:14 [INFO ]              )
2024-05-22 02:21:14 [INFO ]              (output): BertSelfOutput(
2024-05-22 02:21:14 [INFO ]                (dense): Linear(in_features=768, out_features=768, bias=True)
2024-05-22 02:21:14 [INFO ]                (LayerNorm): LayerNorm((768,), eps=1e-12, elementwise_affine=True)
2024-05-22 02:21:14 [INFO ]                (dropout): Dropout(p=0.1, inplace=False)
2024-05-22 02:21:14 [INFO ]              )
2024-05-22 02:21:14 [INFO ]            )
2024-05-22 02:21:14 [INFO ]            (intermediate): BertIntermediate(
2024-05-22 02:21:14 [INFO ]              (dense): Linear(in_features=768, out_features=3072, bias=True)
2024-05-22 02:21:14 [INFO ]              (intermediate_act_fn): GELUActivation()
2024-05-22 02:21:14 [INFO ]            )
2024-05-22 02:21:14 [INFO ]            (output): BertOutput(
2024-05-22 02:21:14 [INFO ]              (dense): Linear(in_features=3072, out_features=768, bias=True)
2024-05-22 02:21:14 [INFO ]              (LayerNorm): LayerNorm((768,), eps=1e-12, elementwise_affine=True)
2024-05-22 02:21:14 [INFO ]              (dropout): Dropout(p=0.1, inplace=False)
2024-05-22 02:21:14 [INFO ]            )
2024-05-22 02:21:14 [INFO ]          )
2024-05-22 02:21:14 [INFO ]          (8): BertLayer(
2024-05-22 02:21:14 [INFO ]            (attention): BertAttention(
2024-05-22 02:21:14 [INFO ]              (self): BertSelfAttention(
2024-05-22 02:21:14 [INFO ]                (query): Linear(in_features=768, out_features=768, bias=True)
2024-05-22 02:21:14 [INFO ]                (key): Linear(in_features=768, out_features=768, bias=True)
2024-05-22 02:21:14 [INFO ]                (value): Linear(in_features=768, out_features=768, bias=True)
2024-05-22 02:21:14 [INFO ]                (dropout): Dropout(p=0.1, inplace=False)
2024-05-22 02:21:14 [INFO ]              )
2024-05-22 02:21:14 [INFO ]              (output): BertSelfOutput(
2024-05-22 02:21:14 [INFO ]                (dense): Linear(in_features=768, out_features=768, bias=True)
2024-05-22 02:21:14 [INFO ]                (LayerNorm): LayerNorm((768,), eps=1e-12, elementwise_affine=True)
2024-05-22 02:21:14 [INFO ]                (dropout): Dropout(p=0.1, inplace=False)
2024-05-22 02:21:14 [INFO ]              )
2024-05-22 02:21:14 [INFO ]            )
2024-05-22 02:21:14 [INFO ]            (intermediate): BertIntermediate(
2024-05-22 02:21:14 [INFO ]              (dense): Linear(in_features=768, out_features=3072, bias=True)
2024-05-22 02:21:14 [INFO ]              (intermediate_act_fn): GELUActivation()
2024-05-22 02:21:14 [INFO ]            )
2024-05-22 02:21:14 [INFO ]            (output): BertOutput(
2024-05-22 02:21:14 [INFO ]              (dense): Linear(in_features=3072, out_features=768, bias=True)
2024-05-22 02:21:14 [INFO ]              (LayerNorm): LayerNorm((768,), eps=1e-12, elementwise_affine=True)
2024-05-22 02:21:14 [INFO ]              (dropout): Dropout(p=0.1, inplace=False)
2024-05-22 02:21:14 [INFO ]            )
2024-05-22 02:21:14 [INFO ]          )
2024-05-22 02:21:14 [INFO ]          (9): BertLayer(
2024-05-22 02:21:14 [INFO ]            (attention): BertAttention(
2024-05-22 02:21:14 [INFO ]              (self): BertSelfAttention(
2024-05-22 02:21:14 [INFO ]                (query): Linear(in_features=768, out_features=768, bias=True)
2024-05-22 02:21:14 [INFO ]                (key): Linear(in_features=768, out_features=768, bias=True)
2024-05-22 02:21:14 [INFO ]                (value): Linear(in_features=768, out_features=768, bias=True)
2024-05-22 02:21:14 [INFO ]                (dropout): Dropout(p=0.1, inplace=False)
2024-05-22 02:21:14 [INFO ]              )
2024-05-22 02:21:14 [INFO ]              (output): BertSelfOutput(
2024-05-22 02:21:14 [INFO ]                (dense): Linear(in_features=768, out_features=768, bias=True)
2024-05-22 02:21:14 [INFO ]                (LayerNorm): LayerNorm((768,), eps=1e-12, elementwise_affine=True)
2024-05-22 02:21:14 [INFO ]                (dropout): Dropout(p=0.1, inplace=False)
2024-05-22 02:21:14 [INFO ]              )
2024-05-22 02:21:14 [INFO ]            )
2024-05-22 02:21:14 [INFO ]            (intermediate): BertIntermediate(
2024-05-22 02:21:14 [INFO ]              (dense): Linear(in_features=768, out_features=3072, bias=True)
2024-05-22 02:21:14 [INFO ]              (intermediate_act_fn): GELUActivation()
2024-05-22 02:21:14 [INFO ]            )
2024-05-22 02:21:14 [INFO ]            (output): BertOutput(
2024-05-22 02:21:14 [INFO ]              (dense): Linear(in_features=3072, out_features=768, bias=True)
2024-05-22 02:21:14 [INFO ]              (LayerNorm): LayerNorm((768,), eps=1e-12, elementwise_affine=True)
2024-05-22 02:21:14 [INFO ]              (dropout): Dropout(p=0.1, inplace=False)
2024-05-22 02:21:14 [INFO ]            )
2024-05-22 02:21:14 [INFO ]          )
2024-05-22 02:21:14 [INFO ]          (10): BertLayer(
2024-05-22 02:21:14 [INFO ]            (attention): BertAttention(
2024-05-22 02:21:14 [INFO ]              (self): BertSelfAttention(
2024-05-22 02:21:14 [INFO ]                (query): Linear(in_features=768, out_features=768, bias=True)
2024-05-22 02:21:14 [INFO ]                (key): Linear(in_features=768, out_features=768, bias=True)
2024-05-22 02:21:14 [INFO ]                (value): Linear(in_features=768, out_features=768, bias=True)
2024-05-22 02:21:14 [INFO ]                (dropout): Dropout(p=0.1, inplace=False)
2024-05-22 02:21:14 [INFO ]              )
2024-05-22 02:21:14 [INFO ]              (output): BertSelfOutput(
2024-05-22 02:21:14 [INFO ]                (dense): Linear(in_features=768, out_features=768, bias=True)
2024-05-22 02:21:14 [INFO ]                (LayerNorm): LayerNorm((768,), eps=1e-12, elementwise_affine=True)
2024-05-22 02:21:14 [INFO ]                (dropout): Dropout(p=0.1, inplace=False)
2024-05-22 02:21:14 [INFO ]              )
2024-05-22 02:21:14 [INFO ]            )
2024-05-22 02:21:14 [INFO ]            (intermediate): BertIntermediate(
2024-05-22 02:21:14 [INFO ]              (dense): Linear(in_features=768, out_features=3072, bias=True)
2024-05-22 02:21:14 [INFO ]              (intermediate_act_fn): GELUActivation()
2024-05-22 02:21:14 [INFO ]            )
2024-05-22 02:21:14 [INFO ]            (output): BertOutput(
2024-05-22 02:21:14 [INFO ]              (dense): Linear(in_features=3072, out_features=768, bias=True)
2024-05-22 02:21:14 [INFO ]              (LayerNorm): LayerNorm((768,), eps=1e-12, elementwise_affine=True)
2024-05-22 02:21:14 [INFO ]              (dropout): Dropout(p=0.1, inplace=False)
2024-05-22 02:21:14 [INFO ]            )
2024-05-22 02:21:14 [INFO ]          )
2024-05-22 02:21:14 [INFO ]          (11): BertLayer(
2024-05-22 02:21:14 [INFO ]            (attention): BertAttention(
2024-05-22 02:21:14 [INFO ]              (self): BertSelfAttention(
2024-05-22 02:21:14 [INFO ]                (query): Linear(in_features=768, out_features=768, bias=True)
2024-05-22 02:21:14 [INFO ]                (key): Linear(in_features=768, out_features=768, bias=True)
2024-05-22 02:21:14 [INFO ]                (value): Linear(in_features=768, out_features=768, bias=True)
2024-05-22 02:21:14 [INFO ]                (dropout): Dropout(p=0.1, inplace=False)
2024-05-22 02:21:14 [INFO ]              )
2024-05-22 02:21:14 [INFO ]              (output): BertSelfOutput(
2024-05-22 02:21:14 [INFO ]                (dense): Linear(in_features=768, out_features=768, bias=True)
2024-05-22 02:21:14 [INFO ]                (LayerNorm): LayerNorm((768,), eps=1e-12, elementwise_affine=True)
2024-05-22 02:21:14 [INFO ]                (dropout): Dropout(p=0.1, inplace=False)
2024-05-22 02:21:14 [INFO ]              )
2024-05-22 02:21:14 [INFO ]            )
2024-05-22 02:21:14 [INFO ]            (intermediate): BertIntermediate(
2024-05-22 02:21:14 [INFO ]              (dense): Linear(in_features=768, out_features=3072, bias=True)
2024-05-22 02:21:14 [INFO ]              (intermediate_act_fn): GELUActivation()
2024-05-22 02:21:14 [INFO ]            )
2024-05-22 02:21:14 [INFO ]            (output): BertOutput(
2024-05-22 02:21:14 [INFO ]              (dense): Linear(in_features=3072, out_features=768, bias=True)
2024-05-22 02:21:14 [INFO ]              (LayerNorm): LayerNorm((768,), eps=1e-12, elementwise_affine=True)
2024-05-22 02:21:14 [INFO ]              (dropout): Dropout(p=0.1, inplace=False)
2024-05-22 02:21:14 [INFO ]            )
2024-05-22 02:21:14 [INFO ]          )
2024-05-22 02:21:14 [INFO ]        )
2024-05-22 02:21:14 [INFO ]      )
2024-05-22 02:21:14 [INFO ]      (pooler): BertPooler(
2024-05-22 02:21:14 [INFO ]        (dense): Linear(in_features=768, out_features=768, bias=True)
2024-05-22 02:21:14 [INFO ]        (activation): Tanh()
2024-05-22 02:21:14 [INFO ]      )
2024-05-22 02:21:14 [INFO ]    )
2024-05-22 02:21:14 [INFO ]    (classifier): MLPLeace(
2024-05-22 02:21:14 [INFO ]      (output_layer): Linear(in_features=300, out_features=2, bias=True)
2024-05-22 02:21:14 [INFO ]      (AF): Tanh()
2024-05-22 02:21:14 [INFO ]      (dropout): Dropout(p=0.1, inplace=False)
2024-05-22 02:21:14 [INFO ]      (hidden_layers): ModuleList(
2024-05-22 02:21:14 [INFO ]        (0): Linear(in_features=768, out_features=300, bias=True)
2024-05-22 02:21:14 [INFO ]        (1): Dropout(p=0.1, inplace=False)
2024-05-22 02:21:14 [INFO ]        (2): Tanh()
2024-05-22 02:21:14 [INFO ]        (3): Linear(in_features=300, out_features=300, bias=True)
2024-05-22 02:21:14 [INFO ]        (4): Dropout(p=0.1, inplace=False)
2024-05-22 02:21:14 [INFO ]        (5): Tanh()
2024-05-22 02:21:14 [INFO ]      )
2024-05-22 02:21:14 [INFO ]      (criterion): CrossEntropyLoss()
2024-05-22 02:21:14 [INFO ]    )
2024-05-22 02:21:14 [INFO ]    (criterion): CrossEntropyLoss()
2024-05-22 02:21:14 [INFO ]  )
2024-05-22 02:21:14 [INFO ]  Total number of parameters: 108631874 
…
