…
2024-05-21 23:17:08 [WARNING]  ./results/dev/MTC_age/multilingual/English/opt_acc_mtc_age_unbal/fairlib_bert_no_sn_MTC_age_eval_Adv_18/opt.yaml already exists, moved to ./results/dev/MTC_age/multilingual/English/opt_acc_mtc_age_unbal/fairlib_bert_no_sn_MTC_age_eval_Adv_18/old_opts/opt_2024_05_21__23_10_19.yaml
Loaded data shapes: (22818, 128), (22818,), (22818,)
Loaded data shapes: (4512, 128), (4512,), (4512,)
Loaded data shapes: (5032, 128), (5032,), (5032,)
2024-05-21 23:17:13 [INFO ]  train dataset size:	22818
2024-05-21 23:17:13 [INFO ]  validation dataset size: 	4512
2024-05-21 23:17:13 [INFO ]  test dataset size: 	5032
2024-05-21 23:17:13 [INFO ]  datasets built!
2024-05-21 23:17:17 [INFO ]  SubDiscriminator( 
2024-05-21 23:17:17 [INFO ]    (grad_rev): GradientReversal()
2024-05-21 23:17:17 [INFO ]    (output_layer): Linear(in_features=300, out_features=2, bias=True)
2024-05-21 23:17:17 [INFO ]    (AF): ReLU()
2024-05-21 23:17:17 [INFO ]    (hidden_layers): ModuleList(
2024-05-21 23:17:17 [INFO ]      (0): Linear(in_features=300, out_features=300, bias=True)
2024-05-21 23:17:17 [INFO ]      (1): ReLU()
2024-05-21 23:17:17 [INFO ]      (2): Linear(in_features=300, out_features=300, bias=True)
2024-05-21 23:17:17 [INFO ]      (3): ReLU()
2024-05-21 23:17:17 [INFO ]    )
2024-05-21 23:17:17 [INFO ]    (criterion): CrossEntropyLoss()
2024-05-21 23:17:17 [INFO ]  )
2024-05-21 23:17:17 [INFO ]  Total number of parameters: 181202 

2024-05-21 23:17:17 [INFO ]  Discriminator built!
2024-05-21 23:17:18 [INFO ]  MLP( 
2024-05-21 23:17:18 [INFO ]    (output_layer): Linear(in_features=300, out_features=2, bias=True)
2024-05-21 23:17:18 [INFO ]    (AF): Tanh()
2024-05-21 23:17:18 [INFO ]    (dropout): Dropout(p=0.1, inplace=False)
2024-05-21 23:17:18 [INFO ]    (hidden_layers): ModuleList(
2024-05-21 23:17:18 [INFO ]      (0): Linear(in_features=768, out_features=300, bias=True)
2024-05-21 23:17:18 [INFO ]      (1): Dropout(p=0.1, inplace=False)
2024-05-21 23:17:18 [INFO ]      (2): Tanh()
2024-05-21 23:17:18 [INFO ]      (3): Linear(in_features=300, out_features=300, bias=True)
2024-05-21 23:17:18 [INFO ]      (4): Dropout(p=0.1, inplace=False)
2024-05-21 23:17:18 [INFO ]      (5): Tanh()
2024-05-21 23:17:18 [INFO ]    )
2024-05-21 23:17:18 [INFO ]    (criterion): CrossEntropyLoss()
2024-05-21 23:17:18 [INFO ]  )
2024-05-21 23:17:18 [INFO ]  Total number of parameters: 321602 

2024-05-21 23:17:18 [INFO ]  BERTClassifier( 
2024-05-21 23:17:18 [INFO ]    (bert): BertModel(
2024-05-21 23:17:18 [INFO ]      (embeddings): BertEmbeddings(
2024-05-21 23:17:18 [INFO ]        (word_embeddings): Embedding(28996, 768, padding_idx=0)
2024-05-21 23:17:18 [INFO ]        (position_embeddings): Embedding(512, 768)
2024-05-21 23:17:18 [INFO ]        (token_type_embeddings): Embedding(2, 768)
2024-05-21 23:17:18 [INFO ]        (LayerNorm): LayerNorm((768,), eps=1e-12, elementwise_affine=True)
2024-05-21 23:17:18 [INFO ]        (dropout): Dropout(p=0.1, inplace=False)
2024-05-21 23:17:18 [INFO ]      )
2024-05-21 23:17:18 [INFO ]      (encoder): BertEncoder(
2024-05-21 23:17:18 [INFO ]        (layer): ModuleList(
2024-05-21 23:17:18 [INFO ]          (0): BertLayer(
2024-05-21 23:17:18 [INFO ]            (attention): BertAttention(
2024-05-21 23:17:18 [INFO ]              (self): BertSelfAttention(
2024-05-21 23:17:18 [INFO ]                (query): Linear(in_features=768, out_features=768, bias=True)
2024-05-21 23:17:18 [INFO ]                (key): Linear(in_features=768, out_features=768, bias=True)
2024-05-21 23:17:18 [INFO ]                (value): Linear(in_features=768, out_features=768, bias=True)
2024-05-21 23:17:18 [INFO ]                (dropout): Dropout(p=0.1, inplace=False)
2024-05-21 23:17:18 [INFO ]              )
2024-05-21 23:17:18 [INFO ]              (output): BertSelfOutput(
2024-05-21 23:17:18 [INFO ]                (dense): Linear(in_features=768, out_features=768, bias=True)
2024-05-21 23:17:18 [INFO ]                (LayerNorm): LayerNorm((768,), eps=1e-12, elementwise_affine=True)
2024-05-21 23:17:18 [INFO ]                (dropout): Dropout(p=0.1, inplace=False)
2024-05-21 23:17:18 [INFO ]              )
2024-05-21 23:17:18 [INFO ]            )
2024-05-21 23:17:18 [INFO ]            (intermediate): BertIntermediate(
2024-05-21 23:17:18 [INFO ]              (dense): Linear(in_features=768, out_features=3072, bias=True)
2024-05-21 23:17:18 [INFO ]              (intermediate_act_fn): GELUActivation()
2024-05-21 23:17:18 [INFO ]            )
2024-05-21 23:17:18 [INFO ]            (output): BertOutput(
2024-05-21 23:17:18 [INFO ]              (dense): Linear(in_features=3072, out_features=768, bias=True)
2024-05-21 23:17:18 [INFO ]              (LayerNorm): LayerNorm((768,), eps=1e-12, elementwise_affine=True)
2024-05-21 23:17:18 [INFO ]              (dropout): Dropout(p=0.1, inplace=False)
2024-05-21 23:17:18 [INFO ]            )
2024-05-21 23:17:18 [INFO ]          )
2024-05-21 23:17:18 [INFO ]          (1): BertLayer(
2024-05-21 23:17:18 [INFO ]            (attention): BertAttention(
2024-05-21 23:17:18 [INFO ]              (self): BertSelfAttention(
2024-05-21 23:17:18 [INFO ]                (query): Linear(in_features=768, out_features=768, bias=True)
2024-05-21 23:17:18 [INFO ]                (key): Linear(in_features=768, out_features=768, bias=True)
2024-05-21 23:17:18 [INFO ]                (value): Linear(in_features=768, out_features=768, bias=True)
2024-05-21 23:17:18 [INFO ]                (dropout): Dropout(p=0.1, inplace=False)
2024-05-21 23:17:18 [INFO ]              )
2024-05-21 23:17:18 [INFO ]              (output): BertSelfOutput(
2024-05-21 23:17:18 [INFO ]                (dense): Linear(in_features=768, out_features=768, bias=True)
2024-05-21 23:17:18 [INFO ]                (LayerNorm): LayerNorm((768,), eps=1e-12, elementwise_affine=True)
2024-05-21 23:17:18 [INFO ]                (dropout): Dropout(p=0.1, inplace=False)
2024-05-21 23:17:18 [INFO ]              )
2024-05-21 23:17:18 [INFO ]            )
2024-05-21 23:17:18 [INFO ]            (intermediate): BertIntermediate(
2024-05-21 23:17:18 [INFO ]              (dense): Linear(in_features=768, out_features=3072, bias=True)
2024-05-21 23:17:18 [INFO ]              (intermediate_act_fn): GELUActivation()
2024-05-21 23:17:18 [INFO ]            )
2024-05-21 23:17:18 [INFO ]            (output): BertOutput(
2024-05-21 23:17:18 [INFO ]              (dense): Linear(in_features=3072, out_features=768, bias=True)
2024-05-21 23:17:18 [INFO ]              (LayerNorm): LayerNorm((768,), eps=1e-12, elementwise_affine=True)
2024-05-21 23:17:18 [INFO ]              (dropout): Dropout(p=0.1, inplace=False)
2024-05-21 23:17:18 [INFO ]            )
2024-05-21 23:17:18 [INFO ]          )
2024-05-21 23:17:18 [INFO ]          (2): BertLayer(
2024-05-21 23:17:18 [INFO ]            (attention): BertAttention(
2024-05-21 23:17:18 [INFO ]              (self): BertSelfAttention(
2024-05-21 23:17:18 [INFO ]                (query): Linear(in_features=768, out_features=768, bias=True)
2024-05-21 23:17:18 [INFO ]                (key): Linear(in_features=768, out_features=768, bias=True)
2024-05-21 23:17:18 [INFO ]                (value): Linear(in_features=768, out_features=768, bias=True)
2024-05-21 23:17:18 [INFO ]                (dropout): Dropout(p=0.1, inplace=False)
2024-05-21 23:17:18 [INFO ]              )
2024-05-21 23:17:18 [INFO ]              (output): BertSelfOutput(
2024-05-21 23:17:18 [INFO ]                (dense): Linear(in_features=768, out_features=768, bias=True)
2024-05-21 23:17:18 [INFO ]                (LayerNorm): LayerNorm((768,), eps=1e-12, elementwise_affine=True)
2024-05-21 23:17:18 [INFO ]                (dropout): Dropout(p=0.1, inplace=False)
2024-05-21 23:17:18 [INFO ]              )
2024-05-21 23:17:18 [INFO ]            )
2024-05-21 23:17:18 [INFO ]            (intermediate): BertIntermediate(
2024-05-21 23:17:18 [INFO ]              (dense): Linear(in_features=768, out_features=3072, bias=True)
2024-05-21 23:17:18 [INFO ]              (intermediate_act_fn): GELUActivation()
2024-05-21 23:17:18 [INFO ]            )
2024-05-21 23:17:18 [INFO ]            (output): BertOutput(
2024-05-21 23:17:18 [INFO ]              (dense): Linear(in_features=3072, out_features=768, bias=True)
2024-05-21 23:17:18 [INFO ]              (LayerNorm): LayerNorm((768,), eps=1e-12, elementwise_affine=True)
2024-05-21 23:17:18 [INFO ]              (dropout): Dropout(p=0.1, inplace=False)
2024-05-21 23:17:18 [INFO ]            )
2024-05-21 23:17:18 [INFO ]          )
2024-05-21 23:17:18 [INFO ]          (3): BertLayer(
2024-05-21 23:17:18 [INFO ]            (attention): BertAttention(
2024-05-21 23:17:18 [INFO ]              (self): BertSelfAttention(
2024-05-21 23:17:18 [INFO ]                (query): Linear(in_features=768, out_features=768, bias=True)
2024-05-21 23:17:18 [INFO ]                (key): Linear(in_features=768, out_features=768, bias=True)
2024-05-21 23:17:18 [INFO ]                (value): Linear(in_features=768, out_features=768, bias=True)
2024-05-21 23:17:18 [INFO ]                (dropout): Dropout(p=0.1, inplace=False)
2024-05-21 23:17:18 [INFO ]              )
2024-05-21 23:17:18 [INFO ]              (output): BertSelfOutput(
2024-05-21 23:17:18 [INFO ]                (dense): Linear(in_features=768, out_features=768, bias=True)
2024-05-21 23:17:18 [INFO ]                (LayerNorm): LayerNorm((768,), eps=1e-12, elementwise_affine=True)
2024-05-21 23:17:18 [INFO ]                (dropout): Dropout(p=0.1, inplace=False)
2024-05-21 23:17:18 [INFO ]              )
2024-05-21 23:17:18 [INFO ]            )
2024-05-21 23:17:18 [INFO ]            (intermediate): BertIntermediate(
2024-05-21 23:17:18 [INFO ]              (dense): Linear(in_features=768, out_features=3072, bias=True)
2024-05-21 23:17:18 [INFO ]              (intermediate_act_fn): GELUActivation()
2024-05-21 23:17:18 [INFO ]            )
2024-05-21 23:17:18 [INFO ]            (output): BertOutput(
2024-05-21 23:17:18 [INFO ]              (dense): Linear(in_features=3072, out_features=768, bias=True)
2024-05-21 23:17:18 [INFO ]              (LayerNorm): LayerNorm((768,), eps=1e-12, elementwise_affine=True)
2024-05-21 23:17:18 [INFO ]              (dropout): Dropout(p=0.1, inplace=False)
2024-05-21 23:17:18 [INFO ]            )
2024-05-21 23:17:18 [INFO ]          )
2024-05-21 23:17:18 [INFO ]          (4): BertLayer(
2024-05-21 23:17:18 [INFO ]            (attention): BertAttention(
2024-05-21 23:17:18 [INFO ]              (self): BertSelfAttention(
2024-05-21 23:17:18 [INFO ]                (query): Linear(in_features=768, out_features=768, bias=True)
2024-05-21 23:17:18 [INFO ]                (key): Linear(in_features=768, out_features=768, bias=True)
2024-05-21 23:17:18 [INFO ]                (value): Linear(in_features=768, out_features=768, bias=True)
2024-05-21 23:17:18 [INFO ]                (dropout): Dropout(p=0.1, inplace=False)
2024-05-21 23:17:18 [INFO ]              )
2024-05-21 23:17:18 [INFO ]              (output): BertSelfOutput(
2024-05-21 23:17:18 [INFO ]                (dense): Linear(in_features=768, out_features=768, bias=True)
2024-05-21 23:17:18 [INFO ]                (LayerNorm): LayerNorm((768,), eps=1e-12, elementwise_affine=True)
2024-05-21 23:17:18 [INFO ]                (dropout): Dropout(p=0.1, inplace=False)
2024-05-21 23:17:18 [INFO ]              )
2024-05-21 23:17:18 [INFO ]            )
2024-05-21 23:17:18 [INFO ]            (intermediate): BertIntermediate(
2024-05-21 23:17:18 [INFO ]              (dense): Linear(in_features=768, out_features=3072, bias=True)
2024-05-21 23:17:18 [INFO ]              (intermediate_act_fn): GELUActivation()
2024-05-21 23:17:18 [INFO ]            )
2024-05-21 23:17:18 [INFO ]            (output): BertOutput(
2024-05-21 23:17:18 [INFO ]              (dense): Linear(in_features=3072, out_features=768, bias=True)
2024-05-21 23:17:18 [INFO ]              (LayerNorm): LayerNorm((768,), eps=1e-12, elementwise_affine=True)
2024-05-21 23:17:18 [INFO ]              (dropout): Dropout(p=0.1, inplace=False)
2024-05-21 23:17:18 [INFO ]            )
2024-05-21 23:17:18 [INFO ]          )
2024-05-21 23:17:18 [INFO ]          (5): BertLayer(
2024-05-21 23:17:18 [INFO ]            (attention): BertAttention(
2024-05-21 23:17:18 [INFO ]              (self): BertSelfAttention(
2024-05-21 23:17:18 [INFO ]                (query): Linear(in_features=768, out_features=768, bias=True)
2024-05-21 23:17:18 [INFO ]                (key): Linear(in_features=768, out_features=768, bias=True)
2024-05-21 23:17:18 [INFO ]                (value): Linear(in_features=768, out_features=768, bias=True)
2024-05-21 23:17:18 [INFO ]                (dropout): Dropout(p=0.1, inplace=False)
2024-05-21 23:17:18 [INFO ]              )
2024-05-21 23:17:18 [INFO ]              (output): BertSelfOutput(
2024-05-21 23:17:18 [INFO ]                (dense): Linear(in_features=768, out_features=768, bias=True)
2024-05-21 23:17:18 [INFO ]                (LayerNorm): LayerNorm((768,), eps=1e-12, elementwise_affine=True)
2024-05-21 23:17:18 [INFO ]                (dropout): Dropout(p=0.1, inplace=False)
2024-05-21 23:17:18 [INFO ]              )
2024-05-21 23:17:18 [INFO ]            )
2024-05-21 23:17:18 [INFO ]            (intermediate): BertIntermediate(
2024-05-21 23:17:18 [INFO ]              (dense): Linear(in_features=768, out_features=3072, bias=True)
2024-05-21 23:17:18 [INFO ]              (intermediate_act_fn): GELUActivation()
2024-05-21 23:17:18 [INFO ]            )
2024-05-21 23:17:18 [INFO ]            (output): BertOutput(
2024-05-21 23:17:18 [INFO ]              (dense): Linear(in_features=3072, out_features=768, bias=True)
2024-05-21 23:17:18 [INFO ]              (LayerNorm): LayerNorm((768,), eps=1e-12, elementwise_affine=True)
2024-05-21 23:17:18 [INFO ]              (dropout): Dropout(p=0.1, inplace=False)
2024-05-21 23:17:18 [INFO ]            )
2024-05-21 23:17:18 [INFO ]          )
2024-05-21 23:17:18 [INFO ]          (6): BertLayer(
2024-05-21 23:17:18 [INFO ]            (attention): BertAttention(
2024-05-21 23:17:18 [INFO ]              (self): BertSelfAttention(
2024-05-21 23:17:18 [INFO ]                (query): Linear(in_features=768, out_features=768, bias=True)
2024-05-21 23:17:18 [INFO ]                (key): Linear(in_features=768, out_features=768, bias=True)
2024-05-21 23:17:18 [INFO ]                (value): Linear(in_features=768, out_features=768, bias=True)
2024-05-21 23:17:18 [INFO ]                (dropout): Dropout(p=0.1, inplace=False)
2024-05-21 23:17:18 [INFO ]              )
2024-05-21 23:17:18 [INFO ]              (output): BertSelfOutput(
2024-05-21 23:17:18 [INFO ]                (dense): Linear(in_features=768, out_features=768, bias=True)
2024-05-21 23:17:18 [INFO ]                (LayerNorm): LayerNorm((768,), eps=1e-12, elementwise_affine=True)
2024-05-21 23:17:18 [INFO ]                (dropout): Dropout(p=0.1, inplace=False)
2024-05-21 23:17:18 [INFO ]              )
2024-05-21 23:17:18 [INFO ]            )
2024-05-21 23:17:18 [INFO ]            (intermediate): BertIntermediate(
2024-05-21 23:17:18 [INFO ]              (dense): Linear(in_features=768, out_features=3072, bias=True)
2024-05-21 23:17:18 [INFO ]              (intermediate_act_fn): GELUActivation()
2024-05-21 23:17:18 [INFO ]            )
2024-05-21 23:17:18 [INFO ]            (output): BertOutput(
2024-05-21 23:17:18 [INFO ]              (dense): Linear(in_features=3072, out_features=768, bias=True)
2024-05-21 23:17:18 [INFO ]              (LayerNorm): LayerNorm((768,), eps=1e-12, elementwise_affine=True)
2024-05-21 23:17:18 [INFO ]              (dropout): Dropout(p=0.1, inplace=False)
2024-05-21 23:17:18 [INFO ]            )
2024-05-21 23:17:18 [INFO ]          )
2024-05-21 23:17:18 [INFO ]          (7): BertLayer(
2024-05-21 23:17:18 [INFO ]            (attention): BertAttention(
2024-05-21 23:17:18 [INFO ]              (self): BertSelfAttention(
2024-05-21 23:17:18 [INFO ]                (query): Linear(in_features=768, out_features=768, bias=True)
2024-05-21 23:17:18 [INFO ]                (key): Linear(in_features=768, out_features=768, bias=True)
2024-05-21 23:17:18 [INFO ]                (value): Linear(in_features=768, out_features=768, bias=True)
2024-05-21 23:17:18 [INFO ]                (dropout): Dropout(p=0.1, inplace=False)
2024-05-21 23:17:18 [INFO ]              )
2024-05-21 23:17:18 [INFO ]              (output): BertSelfOutput(
2024-05-21 23:17:18 [INFO ]                (dense): Linear(in_features=768, out_features=768, bias=True)
2024-05-21 23:17:18 [INFO ]                (LayerNorm): LayerNorm((768,), eps=1e-12, elementwise_affine=True)
2024-05-21 23:17:18 [INFO ]                (dropout): Dropout(p=0.1, inplace=False)
2024-05-21 23:17:18 [INFO ]              )
2024-05-21 23:17:18 [INFO ]            )
2024-05-21 23:17:18 [INFO ]            (intermediate): BertIntermediate(
2024-05-21 23:17:18 [INFO ]              (dense): Linear(in_features=768, out_features=3072, bias=True)
2024-05-21 23:17:18 [INFO ]              (intermediate_act_fn): GELUActivation()
2024-05-21 23:17:18 [INFO ]            )
2024-05-21 23:17:18 [INFO ]            (output): BertOutput(
2024-05-21 23:17:18 [INFO ]              (dense): Linear(in_features=3072, out_features=768, bias=True)
2024-05-21 23:17:18 [INFO ]              (LayerNorm): LayerNorm((768,), eps=1e-12, elementwise_affine=True)
2024-05-21 23:17:18 [INFO ]              (dropout): Dropout(p=0.1, inplace=False)
2024-05-21 23:17:18 [INFO ]            )
2024-05-21 23:17:18 [INFO ]          )
2024-05-21 23:17:18 [INFO ]          (8): BertLayer(
2024-05-21 23:17:18 [INFO ]            (attention): BertAttention(
2024-05-21 23:17:18 [INFO ]              (self): BertSelfAttention(
2024-05-21 23:17:18 [INFO ]                (query): Linear(in_features=768, out_features=768, bias=True)
2024-05-21 23:17:18 [INFO ]                (key): Linear(in_features=768, out_features=768, bias=True)
2024-05-21 23:17:18 [INFO ]                (value): Linear(in_features=768, out_features=768, bias=True)
2024-05-21 23:17:18 [INFO ]                (dropout): Dropout(p=0.1, inplace=False)
2024-05-21 23:17:18 [INFO ]              )
2024-05-21 23:17:18 [INFO ]              (output): BertSelfOutput(
2024-05-21 23:17:18 [INFO ]                (dense): Linear(in_features=768, out_features=768, bias=True)
2024-05-21 23:17:18 [INFO ]                (LayerNorm): LayerNorm((768,), eps=1e-12, elementwise_affine=True)
2024-05-21 23:17:18 [INFO ]                (dropout): Dropout(p=0.1, inplace=False)
2024-05-21 23:17:18 [INFO ]              )
2024-05-21 23:17:18 [INFO ]            )
2024-05-21 23:17:18 [INFO ]            (intermediate): BertIntermediate(
2024-05-21 23:17:18 [INFO ]              (dense): Linear(in_features=768, out_features=3072, bias=True)
2024-05-21 23:17:18 [INFO ]              (intermediate_act_fn): GELUActivation()
2024-05-21 23:17:18 [INFO ]            )
2024-05-21 23:17:18 [INFO ]            (output): BertOutput(
2024-05-21 23:17:18 [INFO ]              (dense): Linear(in_features=3072, out_features=768, bias=True)
2024-05-21 23:17:18 [INFO ]              (LayerNorm): LayerNorm((768,), eps=1e-12, elementwise_affine=True)
2024-05-21 23:17:18 [INFO ]              (dropout): Dropout(p=0.1, inplace=False)
2024-05-21 23:17:18 [INFO ]            )
2024-05-21 23:17:18 [INFO ]          )
2024-05-21 23:17:18 [INFO ]          (9): BertLayer(
2024-05-21 23:17:18 [INFO ]            (attention): BertAttention(
2024-05-21 23:17:18 [INFO ]              (self): BertSelfAttention(
2024-05-21 23:17:18 [INFO ]                (query): Linear(in_features=768, out_features=768, bias=True)
2024-05-21 23:17:18 [INFO ]                (key): Linear(in_features=768, out_features=768, bias=True)
2024-05-21 23:17:18 [INFO ]                (value): Linear(in_features=768, out_features=768, bias=True)
2024-05-21 23:17:18 [INFO ]                (dropout): Dropout(p=0.1, inplace=False)
2024-05-21 23:17:18 [INFO ]              )
2024-05-21 23:17:18 [INFO ]              (output): BertSelfOutput(
2024-05-21 23:17:18 [INFO ]                (dense): Linear(in_features=768, out_features=768, bias=True)
2024-05-21 23:17:18 [INFO ]                (LayerNorm): LayerNorm((768,), eps=1e-12, elementwise_affine=True)
2024-05-21 23:17:18 [INFO ]                (dropout): Dropout(p=0.1, inplace=False)
2024-05-21 23:17:18 [INFO ]              )
2024-05-21 23:17:18 [INFO ]            )
2024-05-21 23:17:18 [INFO ]            (intermediate): BertIntermediate(
2024-05-21 23:17:18 [INFO ]              (dense): Linear(in_features=768, out_features=3072, bias=True)
2024-05-21 23:17:18 [INFO ]              (intermediate_act_fn): GELUActivation()
2024-05-21 23:17:18 [INFO ]            )
2024-05-21 23:17:18 [INFO ]            (output): BertOutput(
2024-05-21 23:17:18 [INFO ]              (dense): Linear(in_features=3072, out_features=768, bias=True)
2024-05-21 23:17:18 [INFO ]              (LayerNorm): LayerNorm((768,), eps=1e-12, elementwise_affine=True)
2024-05-21 23:17:18 [INFO ]              (dropout): Dropout(p=0.1, inplace=False)
2024-05-21 23:17:18 [INFO ]            )
2024-05-21 23:17:18 [INFO ]          )
2024-05-21 23:17:18 [INFO ]          (10): BertLayer(
2024-05-21 23:17:18 [INFO ]            (attention): BertAttention(
2024-05-21 23:17:18 [INFO ]              (self): BertSelfAttention(
2024-05-21 23:17:18 [INFO ]                (query): Linear(in_features=768, out_features=768, bias=True)
2024-05-21 23:17:18 [INFO ]                (key): Linear(in_features=768, out_features=768, bias=True)
2024-05-21 23:17:18 [INFO ]                (value): Linear(in_features=768, out_features=768, bias=True)
2024-05-21 23:17:18 [INFO ]                (dropout): Dropout(p=0.1, inplace=False)
2024-05-21 23:17:18 [INFO ]              )
2024-05-21 23:17:18 [INFO ]              (output): BertSelfOutput(
2024-05-21 23:17:18 [INFO ]                (dense): Linear(in_features=768, out_features=768, bias=True)
2024-05-21 23:17:18 [INFO ]                (LayerNorm): LayerNorm((768,), eps=1e-12, elementwise_affine=True)
2024-05-21 23:17:18 [INFO ]                (dropout): Dropout(p=0.1, inplace=False)
2024-05-21 23:17:18 [INFO ]              )
2024-05-21 23:17:18 [INFO ]            )
2024-05-21 23:17:18 [INFO ]            (intermediate): BertIntermediate(
2024-05-21 23:17:18 [INFO ]              (dense): Linear(in_features=768, out_features=3072, bias=True)
2024-05-21 23:17:18 [INFO ]              (intermediate_act_fn): GELUActivation()
2024-05-21 23:17:18 [INFO ]            )
2024-05-21 23:17:18 [INFO ]            (output): BertOutput(
2024-05-21 23:17:18 [INFO ]              (dense): Linear(in_features=3072, out_features=768, bias=True)
2024-05-21 23:17:18 [INFO ]              (LayerNorm): LayerNorm((768,), eps=1e-12, elementwise_affine=True)
2024-05-21 23:17:18 [INFO ]              (dropout): Dropout(p=0.1, inplace=False)
2024-05-21 23:17:18 [INFO ]            )
2024-05-21 23:17:18 [INFO ]          )
2024-05-21 23:17:18 [INFO ]          (11): BertLayer(
2024-05-21 23:17:18 [INFO ]            (attention): BertAttention(
2024-05-21 23:17:18 [INFO ]              (self): BertSelfAttention(
2024-05-21 23:17:18 [INFO ]                (query): Linear(in_features=768, out_features=768, bias=True)
2024-05-21 23:17:18 [INFO ]                (key): Linear(in_features=768, out_features=768, bias=True)
2024-05-21 23:17:18 [INFO ]                (value): Linear(in_features=768, out_features=768, bias=True)
2024-05-21 23:17:18 [INFO ]                (dropout): Dropout(p=0.1, inplace=False)
2024-05-21 23:17:18 [INFO ]              )
2024-05-21 23:17:18 [INFO ]              (output): BertSelfOutput(
2024-05-21 23:17:18 [INFO ]                (dense): Linear(in_features=768, out_features=768, bias=True)
2024-05-21 23:17:18 [INFO ]                (LayerNorm): LayerNorm((768,), eps=1e-12, elementwise_affine=True)
2024-05-21 23:17:18 [INFO ]                (dropout): Dropout(p=0.1, inplace=False)
2024-05-21 23:17:18 [INFO ]              )
2024-05-21 23:17:18 [INFO ]            )
2024-05-21 23:17:18 [INFO ]            (intermediate): BertIntermediate(
2024-05-21 23:17:18 [INFO ]              (dense): Linear(in_features=768, out_features=3072, bias=True)
2024-05-21 23:17:18 [INFO ]              (intermediate_act_fn): GELUActivation()
2024-05-21 23:17:18 [INFO ]            )
2024-05-21 23:17:18 [INFO ]            (output): BertOutput(
2024-05-21 23:17:18 [INFO ]              (dense): Linear(in_features=3072, out_features=768, bias=True)
2024-05-21 23:17:18 [INFO ]              (LayerNorm): LayerNorm((768,), eps=1e-12, elementwise_affine=True)
2024-05-21 23:17:18 [INFO ]              (dropout): Dropout(p=0.1, inplace=False)
2024-05-21 23:17:18 [INFO ]            )
2024-05-21 23:17:18 [INFO ]          )
2024-05-21 23:17:18 [INFO ]        )
2024-05-21 23:17:18 [INFO ]      )
2024-05-21 23:17:18 [INFO ]      (pooler): BertPooler(
2024-05-21 23:17:18 [INFO ]        (dense): Linear(in_features=768, out_features=768, bias=True)
2024-05-21 23:17:18 [INFO ]        (activation): Tanh()
2024-05-21 23:17:18 [INFO ]      )
2024-05-21 23:17:18 [INFO ]    )
2024-05-21 23:17:18 [INFO ]    (classifier): MLP(
2024-05-21 23:17:18 [INFO ]      (output_layer): Linear(in_features=300, out_features=2, bias=True)
2024-05-21 23:17:18 [INFO ]      (AF): Tanh()
2024-05-21 23:17:18 [INFO ]      (dropout): Dropout(p=0.1, inplace=False)
2024-05-21 23:17:18 [INFO ]      (hidden_layers): ModuleList(
2024-05-21 23:17:18 [INFO ]        (0): Linear(in_features=768, out_features=300, bias=True)
2024-05-21 23:17:18 [INFO ]        (1): Dropout(p=0.1, inplace=False)
2024-05-21 23:17:18 [INFO ]        (2): Tanh()
2024-05-21 23:17:18 [INFO ]        (3): Linear(in_features=300, out_features=300, bias=True)
2024-05-21 23:17:18 [INFO ]        (4): Dropout(p=0.1, inplace=False)
2024-05-21 23:17:18 [INFO ]        (5): Tanh()
2024-05-21 23:17:18 [INFO ]      )
2024-05-21 23:17:18 [INFO ]      (criterion): CrossEntropyLoss()
2024-05-21 23:17:18 [INFO ]    )
2024-05-21 23:17:18 [INFO ]    (criterion): CrossEntropyLoss()
2024-05-21 23:17:18 [INFO ]  )
2024-05-21 23:17:18 [INFO ]  Total number of parameters: 108631874 
…
