…
2024-04-24 21:10:52 [WARNING]  ./results/dev/MTC_joint/multilingual/English/opt_acc_mtc_joint_unbal/fairlib_bert_no_sn_MTC_joint_LEACE_18/opt.yaml already exists, moved to ./results/dev/MTC_joint/multilingual/English/opt_acc_mtc_joint_unbal/fairlib_bert_no_sn_MTC_joint_LEACE_18/old_opts/opt_2024_04_24__17_28_00.yaml
Loaded data shapes: (22818, 128), (22818,), (22818,)
Loaded data shapes: (4512, 128), (4512,), (4512,)
Loaded data shapes: (5032, 128), (5032,), (5032,)
2024-04-24 21:11:00 [INFO ]  train dataset size:	22818
2024-04-24 21:11:00 [INFO ]  validation dataset size: 	4512
2024-04-24 21:11:00 [INFO ]  test dataset size: 	5032
2024-04-24 21:11:00 [INFO ]  datasets built!
2024-04-24 21:12:11 [INFO ]  MLP( 
2024-04-24 21:12:11 [INFO ]    (output_layer): Linear(in_features=300, out_features=2, bias=True)
2024-04-24 21:12:11 [INFO ]    (AF): Tanh()
2024-04-24 21:12:11 [INFO ]    (dropout): Dropout(p=0.1, inplace=False)
2024-04-24 21:12:11 [INFO ]    (hidden_layers): ModuleList(
2024-04-24 21:12:11 [INFO ]      (0): Linear(in_features=768, out_features=300, bias=True)
2024-04-24 21:12:11 [INFO ]      (1): Dropout(p=0.1, inplace=False)
2024-04-24 21:12:11 [INFO ]      (2): Tanh()
2024-04-24 21:12:11 [INFO ]      (3): Linear(in_features=300, out_features=300, bias=True)
2024-04-24 21:12:11 [INFO ]      (4): Dropout(p=0.1, inplace=False)
2024-04-24 21:12:11 [INFO ]      (5): Tanh()
2024-04-24 21:12:11 [INFO ]    )
2024-04-24 21:12:11 [INFO ]    (criterion): CrossEntropyLoss()
2024-04-24 21:12:11 [INFO ]  )
2024-04-24 21:12:11 [INFO ]  Total number of parameters: 321602 

2024-04-24 21:12:11 [INFO ]  BERTClassifier( 
2024-04-24 21:12:11 [INFO ]    (bert): BertModel(
2024-04-24 21:12:11 [INFO ]      (embeddings): BertEmbeddings(
2024-04-24 21:12:11 [INFO ]        (word_embeddings): Embedding(28996, 768, padding_idx=0)
2024-04-24 21:12:11 [INFO ]        (position_embeddings): Embedding(512, 768)
2024-04-24 21:12:11 [INFO ]        (token_type_embeddings): Embedding(2, 768)
2024-04-24 21:12:11 [INFO ]        (LayerNorm): LayerNorm((768,), eps=1e-12, elementwise_affine=True)
2024-04-24 21:12:11 [INFO ]        (dropout): Dropout(p=0.1, inplace=False)
2024-04-24 21:12:11 [INFO ]      )
2024-04-24 21:12:11 [INFO ]      (encoder): BertEncoder(
2024-04-24 21:12:11 [INFO ]        (layer): ModuleList(
2024-04-24 21:12:11 [INFO ]          (0): BertLayer(
2024-04-24 21:12:11 [INFO ]            (attention): BertAttention(
2024-04-24 21:12:11 [INFO ]              (self): BertSelfAttention(
2024-04-24 21:12:11 [INFO ]                (query): Linear(in_features=768, out_features=768, bias=True)
2024-04-24 21:12:11 [INFO ]                (key): Linear(in_features=768, out_features=768, bias=True)
2024-04-24 21:12:11 [INFO ]                (value): Linear(in_features=768, out_features=768, bias=True)
2024-04-24 21:12:11 [INFO ]                (dropout): Dropout(p=0.1, inplace=False)
2024-04-24 21:12:11 [INFO ]              )
2024-04-24 21:12:11 [INFO ]              (output): BertSelfOutput(
2024-04-24 21:12:11 [INFO ]                (dense): Linear(in_features=768, out_features=768, bias=True)
2024-04-24 21:12:11 [INFO ]                (LayerNorm): LayerNorm((768,), eps=1e-12, elementwise_affine=True)
2024-04-24 21:12:11 [INFO ]                (dropout): Dropout(p=0.1, inplace=False)
2024-04-24 21:12:11 [INFO ]              )
2024-04-24 21:12:11 [INFO ]            )
2024-04-24 21:12:11 [INFO ]            (intermediate): BertIntermediate(
2024-04-24 21:12:11 [INFO ]              (dense): Linear(in_features=768, out_features=3072, bias=True)
2024-04-24 21:12:11 [INFO ]              (intermediate_act_fn): GELUActivation()
2024-04-24 21:12:11 [INFO ]            )
2024-04-24 21:12:11 [INFO ]            (output): BertOutput(
2024-04-24 21:12:11 [INFO ]              (dense): Linear(in_features=3072, out_features=768, bias=True)
2024-04-24 21:12:11 [INFO ]              (LayerNorm): LayerNorm((768,), eps=1e-12, elementwise_affine=True)
2024-04-24 21:12:11 [INFO ]              (dropout): Dropout(p=0.1, inplace=False)
2024-04-24 21:12:11 [INFO ]            )
2024-04-24 21:12:11 [INFO ]          )
2024-04-24 21:12:11 [INFO ]          (1): BertLayer(
2024-04-24 21:12:11 [INFO ]            (attention): BertAttention(
2024-04-24 21:12:11 [INFO ]              (self): BertSelfAttention(
2024-04-24 21:12:11 [INFO ]                (query): Linear(in_features=768, out_features=768, bias=True)
2024-04-24 21:12:11 [INFO ]                (key): Linear(in_features=768, out_features=768, bias=True)
2024-04-24 21:12:11 [INFO ]                (value): Linear(in_features=768, out_features=768, bias=True)
2024-04-24 21:12:11 [INFO ]                (dropout): Dropout(p=0.1, inplace=False)
2024-04-24 21:12:11 [INFO ]              )
2024-04-24 21:12:11 [INFO ]              (output): BertSelfOutput(
2024-04-24 21:12:11 [INFO ]                (dense): Linear(in_features=768, out_features=768, bias=True)
2024-04-24 21:12:11 [INFO ]                (LayerNorm): LayerNorm((768,), eps=1e-12, elementwise_affine=True)
2024-04-24 21:12:11 [INFO ]                (dropout): Dropout(p=0.1, inplace=False)
2024-04-24 21:12:11 [INFO ]              )
2024-04-24 21:12:11 [INFO ]            )
2024-04-24 21:12:11 [INFO ]            (intermediate): BertIntermediate(
2024-04-24 21:12:11 [INFO ]              (dense): Linear(in_features=768, out_features=3072, bias=True)
2024-04-24 21:12:11 [INFO ]              (intermediate_act_fn): GELUActivation()
2024-04-24 21:12:11 [INFO ]            )
2024-04-24 21:12:11 [INFO ]            (output): BertOutput(
2024-04-24 21:12:11 [INFO ]              (dense): Linear(in_features=3072, out_features=768, bias=True)
2024-04-24 21:12:11 [INFO ]              (LayerNorm): LayerNorm((768,), eps=1e-12, elementwise_affine=True)
2024-04-24 21:12:11 [INFO ]              (dropout): Dropout(p=0.1, inplace=False)
2024-04-24 21:12:11 [INFO ]            )
2024-04-24 21:12:11 [INFO ]          )
2024-04-24 21:12:11 [INFO ]          (2): BertLayer(
2024-04-24 21:12:11 [INFO ]            (attention): BertAttention(
2024-04-24 21:12:11 [INFO ]              (self): BertSelfAttention(
2024-04-24 21:12:11 [INFO ]                (query): Linear(in_features=768, out_features=768, bias=True)
2024-04-24 21:12:11 [INFO ]                (key): Linear(in_features=768, out_features=768, bias=True)
2024-04-24 21:12:11 [INFO ]                (value): Linear(in_features=768, out_features=768, bias=True)
2024-04-24 21:12:11 [INFO ]                (dropout): Dropout(p=0.1, inplace=False)
2024-04-24 21:12:11 [INFO ]              )
2024-04-24 21:12:11 [INFO ]              (output): BertSelfOutput(
2024-04-24 21:12:11 [INFO ]                (dense): Linear(in_features=768, out_features=768, bias=True)
2024-04-24 21:12:11 [INFO ]                (LayerNorm): LayerNorm((768,), eps=1e-12, elementwise_affine=True)
2024-04-24 21:12:11 [INFO ]                (dropout): Dropout(p=0.1, inplace=False)
2024-04-24 21:12:11 [INFO ]              )
2024-04-24 21:12:11 [INFO ]            )
2024-04-24 21:12:11 [INFO ]            (intermediate): BertIntermediate(
2024-04-24 21:12:11 [INFO ]              (dense): Linear(in_features=768, out_features=3072, bias=True)
2024-04-24 21:12:11 [INFO ]              (intermediate_act_fn): GELUActivation()
2024-04-24 21:12:11 [INFO ]            )
2024-04-24 21:12:11 [INFO ]            (output): BertOutput(
2024-04-24 21:12:11 [INFO ]              (dense): Linear(in_features=3072, out_features=768, bias=True)
2024-04-24 21:12:11 [INFO ]              (LayerNorm): LayerNorm((768,), eps=1e-12, elementwise_affine=True)
2024-04-24 21:12:11 [INFO ]              (dropout): Dropout(p=0.1, inplace=False)
2024-04-24 21:12:11 [INFO ]            )
2024-04-24 21:12:11 [INFO ]          )
2024-04-24 21:12:11 [INFO ]          (3): BertLayer(
2024-04-24 21:12:11 [INFO ]            (attention): BertAttention(
2024-04-24 21:12:11 [INFO ]              (self): BertSelfAttention(
2024-04-24 21:12:11 [INFO ]                (query): Linear(in_features=768, out_features=768, bias=True)
2024-04-24 21:12:11 [INFO ]                (key): Linear(in_features=768, out_features=768, bias=True)
2024-04-24 21:12:11 [INFO ]                (value): Linear(in_features=768, out_features=768, bias=True)
2024-04-24 21:12:11 [INFO ]                (dropout): Dropout(p=0.1, inplace=False)
2024-04-24 21:12:11 [INFO ]              )
2024-04-24 21:12:11 [INFO ]              (output): BertSelfOutput(
2024-04-24 21:12:11 [INFO ]                (dense): Linear(in_features=768, out_features=768, bias=True)
2024-04-24 21:12:11 [INFO ]                (LayerNorm): LayerNorm((768,), eps=1e-12, elementwise_affine=True)
2024-04-24 21:12:11 [INFO ]                (dropout): Dropout(p=0.1, inplace=False)
2024-04-24 21:12:11 [INFO ]              )
2024-04-24 21:12:11 [INFO ]            )
2024-04-24 21:12:11 [INFO ]            (intermediate): BertIntermediate(
2024-04-24 21:12:11 [INFO ]              (dense): Linear(in_features=768, out_features=3072, bias=True)
2024-04-24 21:12:11 [INFO ]              (intermediate_act_fn): GELUActivation()
2024-04-24 21:12:11 [INFO ]            )
2024-04-24 21:12:11 [INFO ]            (output): BertOutput(
2024-04-24 21:12:11 [INFO ]              (dense): Linear(in_features=3072, out_features=768, bias=True)
2024-04-24 21:12:11 [INFO ]              (LayerNorm): LayerNorm((768,), eps=1e-12, elementwise_affine=True)
2024-04-24 21:12:11 [INFO ]              (dropout): Dropout(p=0.1, inplace=False)
2024-04-24 21:12:11 [INFO ]            )
2024-04-24 21:12:11 [INFO ]          )
2024-04-24 21:12:11 [INFO ]          (4): BertLayer(
2024-04-24 21:12:11 [INFO ]            (attention): BertAttention(
2024-04-24 21:12:11 [INFO ]              (self): BertSelfAttention(
2024-04-24 21:12:11 [INFO ]                (query): Linear(in_features=768, out_features=768, bias=True)
2024-04-24 21:12:11 [INFO ]                (key): Linear(in_features=768, out_features=768, bias=True)
2024-04-24 21:12:11 [INFO ]                (value): Linear(in_features=768, out_features=768, bias=True)
2024-04-24 21:12:11 [INFO ]                (dropout): Dropout(p=0.1, inplace=False)
2024-04-24 21:12:11 [INFO ]              )
2024-04-24 21:12:11 [INFO ]              (output): BertSelfOutput(
2024-04-24 21:12:11 [INFO ]                (dense): Linear(in_features=768, out_features=768, bias=True)
2024-04-24 21:12:11 [INFO ]                (LayerNorm): LayerNorm((768,), eps=1e-12, elementwise_affine=True)
2024-04-24 21:12:11 [INFO ]                (dropout): Dropout(p=0.1, inplace=False)
2024-04-24 21:12:11 [INFO ]              )
2024-04-24 21:12:11 [INFO ]            )
2024-04-24 21:12:11 [INFO ]            (intermediate): BertIntermediate(
2024-04-24 21:12:11 [INFO ]              (dense): Linear(in_features=768, out_features=3072, bias=True)
2024-04-24 21:12:11 [INFO ]              (intermediate_act_fn): GELUActivation()
2024-04-24 21:12:11 [INFO ]            )
2024-04-24 21:12:11 [INFO ]            (output): BertOutput(
2024-04-24 21:12:11 [INFO ]              (dense): Linear(in_features=3072, out_features=768, bias=True)
2024-04-24 21:12:11 [INFO ]              (LayerNorm): LayerNorm((768,), eps=1e-12, elementwise_affine=True)
2024-04-24 21:12:11 [INFO ]              (dropout): Dropout(p=0.1, inplace=False)
2024-04-24 21:12:11 [INFO ]            )
2024-04-24 21:12:11 [INFO ]          )
2024-04-24 21:12:11 [INFO ]          (5): BertLayer(
2024-04-24 21:12:11 [INFO ]            (attention): BertAttention(
2024-04-24 21:12:11 [INFO ]              (self): BertSelfAttention(
2024-04-24 21:12:11 [INFO ]                (query): Linear(in_features=768, out_features=768, bias=True)
2024-04-24 21:12:11 [INFO ]                (key): Linear(in_features=768, out_features=768, bias=True)
2024-04-24 21:12:11 [INFO ]                (value): Linear(in_features=768, out_features=768, bias=True)
2024-04-24 21:12:11 [INFO ]                (dropout): Dropout(p=0.1, inplace=False)
2024-04-24 21:12:11 [INFO ]              )
2024-04-24 21:12:11 [INFO ]              (output): BertSelfOutput(
2024-04-24 21:12:11 [INFO ]                (dense): Linear(in_features=768, out_features=768, bias=True)
2024-04-24 21:12:11 [INFO ]                (LayerNorm): LayerNorm((768,), eps=1e-12, elementwise_affine=True)
2024-04-24 21:12:11 [INFO ]                (dropout): Dropout(p=0.1, inplace=False)
2024-04-24 21:12:11 [INFO ]              )
2024-04-24 21:12:11 [INFO ]            )
2024-04-24 21:12:11 [INFO ]            (intermediate): BertIntermediate(
2024-04-24 21:12:11 [INFO ]              (dense): Linear(in_features=768, out_features=3072, bias=True)
2024-04-24 21:12:11 [INFO ]              (intermediate_act_fn): GELUActivation()
2024-04-24 21:12:11 [INFO ]            )
2024-04-24 21:12:11 [INFO ]            (output): BertOutput(
2024-04-24 21:12:11 [INFO ]              (dense): Linear(in_features=3072, out_features=768, bias=True)
2024-04-24 21:12:11 [INFO ]              (LayerNorm): LayerNorm((768,), eps=1e-12, elementwise_affine=True)
2024-04-24 21:12:11 [INFO ]              (dropout): Dropout(p=0.1, inplace=False)
2024-04-24 21:12:11 [INFO ]            )
2024-04-24 21:12:11 [INFO ]          )
2024-04-24 21:12:11 [INFO ]          (6): BertLayer(
2024-04-24 21:12:11 [INFO ]            (attention): BertAttention(
2024-04-24 21:12:11 [INFO ]              (self): BertSelfAttention(
2024-04-24 21:12:11 [INFO ]                (query): Linear(in_features=768, out_features=768, bias=True)
2024-04-24 21:12:11 [INFO ]                (key): Linear(in_features=768, out_features=768, bias=True)
2024-04-24 21:12:11 [INFO ]                (value): Linear(in_features=768, out_features=768, bias=True)
2024-04-24 21:12:11 [INFO ]                (dropout): Dropout(p=0.1, inplace=False)
2024-04-24 21:12:11 [INFO ]              )
2024-04-24 21:12:11 [INFO ]              (output): BertSelfOutput(
2024-04-24 21:12:11 [INFO ]                (dense): Linear(in_features=768, out_features=768, bias=True)
2024-04-24 21:12:11 [INFO ]                (LayerNorm): LayerNorm((768,), eps=1e-12, elementwise_affine=True)
2024-04-24 21:12:11 [INFO ]                (dropout): Dropout(p=0.1, inplace=False)
2024-04-24 21:12:11 [INFO ]              )
2024-04-24 21:12:11 [INFO ]            )
2024-04-24 21:12:11 [INFO ]            (intermediate): BertIntermediate(
2024-04-24 21:12:11 [INFO ]              (dense): Linear(in_features=768, out_features=3072, bias=True)
2024-04-24 21:12:11 [INFO ]              (intermediate_act_fn): GELUActivation()
2024-04-24 21:12:11 [INFO ]            )
2024-04-24 21:12:11 [INFO ]            (output): BertOutput(
2024-04-24 21:12:11 [INFO ]              (dense): Linear(in_features=3072, out_features=768, bias=True)
2024-04-24 21:12:11 [INFO ]              (LayerNorm): LayerNorm((768,), eps=1e-12, elementwise_affine=True)
2024-04-24 21:12:11 [INFO ]              (dropout): Dropout(p=0.1, inplace=False)
2024-04-24 21:12:11 [INFO ]            )
2024-04-24 21:12:11 [INFO ]          )
2024-04-24 21:12:11 [INFO ]          (7): BertLayer(
2024-04-24 21:12:11 [INFO ]            (attention): BertAttention(
2024-04-24 21:12:11 [INFO ]              (self): BertSelfAttention(
2024-04-24 21:12:11 [INFO ]                (query): Linear(in_features=768, out_features=768, bias=True)
2024-04-24 21:12:11 [INFO ]                (key): Linear(in_features=768, out_features=768, bias=True)
2024-04-24 21:12:11 [INFO ]                (value): Linear(in_features=768, out_features=768, bias=True)
2024-04-24 21:12:11 [INFO ]                (dropout): Dropout(p=0.1, inplace=False)
2024-04-24 21:12:11 [INFO ]              )
2024-04-24 21:12:11 [INFO ]              (output): BertSelfOutput(
2024-04-24 21:12:11 [INFO ]                (dense): Linear(in_features=768, out_features=768, bias=True)
2024-04-24 21:12:11 [INFO ]                (LayerNorm): LayerNorm((768,), eps=1e-12, elementwise_affine=True)
2024-04-24 21:12:11 [INFO ]                (dropout): Dropout(p=0.1, inplace=False)
2024-04-24 21:12:11 [INFO ]              )
2024-04-24 21:12:11 [INFO ]            )
2024-04-24 21:12:11 [INFO ]            (intermediate): BertIntermediate(
2024-04-24 21:12:11 [INFO ]              (dense): Linear(in_features=768, out_features=3072, bias=True)
2024-04-24 21:12:11 [INFO ]              (intermediate_act_fn): GELUActivation()
2024-04-24 21:12:11 [INFO ]            )
2024-04-24 21:12:11 [INFO ]            (output): BertOutput(
2024-04-24 21:12:11 [INFO ]              (dense): Linear(in_features=3072, out_features=768, bias=True)
2024-04-24 21:12:11 [INFO ]              (LayerNorm): LayerNorm((768,), eps=1e-12, elementwise_affine=True)
2024-04-24 21:12:11 [INFO ]              (dropout): Dropout(p=0.1, inplace=False)
2024-04-24 21:12:11 [INFO ]            )
2024-04-24 21:12:11 [INFO ]          )
2024-04-24 21:12:11 [INFO ]          (8): BertLayer(
2024-04-24 21:12:11 [INFO ]            (attention): BertAttention(
2024-04-24 21:12:11 [INFO ]              (self): BertSelfAttention(
2024-04-24 21:12:11 [INFO ]                (query): Linear(in_features=768, out_features=768, bias=True)
2024-04-24 21:12:11 [INFO ]                (key): Linear(in_features=768, out_features=768, bias=True)
2024-04-24 21:12:11 [INFO ]                (value): Linear(in_features=768, out_features=768, bias=True)
2024-04-24 21:12:11 [INFO ]                (dropout): Dropout(p=0.1, inplace=False)
2024-04-24 21:12:11 [INFO ]              )
2024-04-24 21:12:11 [INFO ]              (output): BertSelfOutput(
2024-04-24 21:12:11 [INFO ]                (dense): Linear(in_features=768, out_features=768, bias=True)
2024-04-24 21:12:11 [INFO ]                (LayerNorm): LayerNorm((768,), eps=1e-12, elementwise_affine=True)
2024-04-24 21:12:11 [INFO ]                (dropout): Dropout(p=0.1, inplace=False)
2024-04-24 21:12:11 [INFO ]              )
2024-04-24 21:12:11 [INFO ]            )
2024-04-24 21:12:11 [INFO ]            (intermediate): BertIntermediate(
2024-04-24 21:12:11 [INFO ]              (dense): Linear(in_features=768, out_features=3072, bias=True)
2024-04-24 21:12:11 [INFO ]              (intermediate_act_fn): GELUActivation()
2024-04-24 21:12:11 [INFO ]            )
2024-04-24 21:12:11 [INFO ]            (output): BertOutput(
2024-04-24 21:12:11 [INFO ]              (dense): Linear(in_features=3072, out_features=768, bias=True)
2024-04-24 21:12:11 [INFO ]              (LayerNorm): LayerNorm((768,), eps=1e-12, elementwise_affine=True)
2024-04-24 21:12:11 [INFO ]              (dropout): Dropout(p=0.1, inplace=False)
2024-04-24 21:12:11 [INFO ]            )
2024-04-24 21:12:11 [INFO ]          )
2024-04-24 21:12:11 [INFO ]          (9): BertLayer(
2024-04-24 21:12:11 [INFO ]            (attention): BertAttention(
2024-04-24 21:12:11 [INFO ]              (self): BertSelfAttention(
2024-04-24 21:12:11 [INFO ]                (query): Linear(in_features=768, out_features=768, bias=True)
2024-04-24 21:12:11 [INFO ]                (key): Linear(in_features=768, out_features=768, bias=True)
2024-04-24 21:12:11 [INFO ]                (value): Linear(in_features=768, out_features=768, bias=True)
2024-04-24 21:12:11 [INFO ]                (dropout): Dropout(p=0.1, inplace=False)
2024-04-24 21:12:11 [INFO ]              )
2024-04-24 21:12:11 [INFO ]              (output): BertSelfOutput(
2024-04-24 21:12:11 [INFO ]                (dense): Linear(in_features=768, out_features=768, bias=True)
2024-04-24 21:12:11 [INFO ]                (LayerNorm): LayerNorm((768,), eps=1e-12, elementwise_affine=True)
2024-04-24 21:12:11 [INFO ]                (dropout): Dropout(p=0.1, inplace=False)
2024-04-24 21:12:11 [INFO ]              )
2024-04-24 21:12:11 [INFO ]            )
2024-04-24 21:12:11 [INFO ]            (intermediate): BertIntermediate(
2024-04-24 21:12:11 [INFO ]              (dense): Linear(in_features=768, out_features=3072, bias=True)
2024-04-24 21:12:11 [INFO ]              (intermediate_act_fn): GELUActivation()
2024-04-24 21:12:11 [INFO ]            )
2024-04-24 21:12:11 [INFO ]            (output): BertOutput(
2024-04-24 21:12:11 [INFO ]              (dense): Linear(in_features=3072, out_features=768, bias=True)
2024-04-24 21:12:11 [INFO ]              (LayerNorm): LayerNorm((768,), eps=1e-12, elementwise_affine=True)
2024-04-24 21:12:11 [INFO ]              (dropout): Dropout(p=0.1, inplace=False)
2024-04-24 21:12:11 [INFO ]            )
2024-04-24 21:12:11 [INFO ]          )
2024-04-24 21:12:11 [INFO ]          (10): BertLayer(
2024-04-24 21:12:11 [INFO ]            (attention): BertAttention(
2024-04-24 21:12:11 [INFO ]              (self): BertSelfAttention(
2024-04-24 21:12:11 [INFO ]                (query): Linear(in_features=768, out_features=768, bias=True)
2024-04-24 21:12:11 [INFO ]                (key): Linear(in_features=768, out_features=768, bias=True)
2024-04-24 21:12:11 [INFO ]                (value): Linear(in_features=768, out_features=768, bias=True)
2024-04-24 21:12:11 [INFO ]                (dropout): Dropout(p=0.1, inplace=False)
2024-04-24 21:12:11 [INFO ]              )
2024-04-24 21:12:11 [INFO ]              (output): BertSelfOutput(
2024-04-24 21:12:11 [INFO ]                (dense): Linear(in_features=768, out_features=768, bias=True)
2024-04-24 21:12:11 [INFO ]                (LayerNorm): LayerNorm((768,), eps=1e-12, elementwise_affine=True)
2024-04-24 21:12:11 [INFO ]                (dropout): Dropout(p=0.1, inplace=False)
2024-04-24 21:12:11 [INFO ]              )
2024-04-24 21:12:11 [INFO ]            )
2024-04-24 21:12:11 [INFO ]            (intermediate): BertIntermediate(
2024-04-24 21:12:11 [INFO ]              (dense): Linear(in_features=768, out_features=3072, bias=True)
2024-04-24 21:12:11 [INFO ]              (intermediate_act_fn): GELUActivation()
2024-04-24 21:12:11 [INFO ]            )
2024-04-24 21:12:11 [INFO ]            (output): BertOutput(
2024-04-24 21:12:11 [INFO ]              (dense): Linear(in_features=3072, out_features=768, bias=True)
2024-04-24 21:12:11 [INFO ]              (LayerNorm): LayerNorm((768,), eps=1e-12, elementwise_affine=True)
2024-04-24 21:12:11 [INFO ]              (dropout): Dropout(p=0.1, inplace=False)
2024-04-24 21:12:11 [INFO ]            )
2024-04-24 21:12:11 [INFO ]          )
2024-04-24 21:12:11 [INFO ]          (11): BertLayer(
2024-04-24 21:12:11 [INFO ]            (attention): BertAttention(
2024-04-24 21:12:11 [INFO ]              (self): BertSelfAttention(
2024-04-24 21:12:11 [INFO ]                (query): Linear(in_features=768, out_features=768, bias=True)
2024-04-24 21:12:11 [INFO ]                (key): Linear(in_features=768, out_features=768, bias=True)
2024-04-24 21:12:11 [INFO ]                (value): Linear(in_features=768, out_features=768, bias=True)
2024-04-24 21:12:11 [INFO ]                (dropout): Dropout(p=0.1, inplace=False)
2024-04-24 21:12:11 [INFO ]              )
2024-04-24 21:12:11 [INFO ]              (output): BertSelfOutput(
2024-04-24 21:12:11 [INFO ]                (dense): Linear(in_features=768, out_features=768, bias=True)
2024-04-24 21:12:11 [INFO ]                (LayerNorm): LayerNorm((768,), eps=1e-12, elementwise_affine=True)
2024-04-24 21:12:11 [INFO ]                (dropout): Dropout(p=0.1, inplace=False)
2024-04-24 21:12:11 [INFO ]              )
2024-04-24 21:12:11 [INFO ]            )
2024-04-24 21:12:11 [INFO ]            (intermediate): BertIntermediate(
2024-04-24 21:12:11 [INFO ]              (dense): Linear(in_features=768, out_features=3072, bias=True)
2024-04-24 21:12:11 [INFO ]              (intermediate_act_fn): GELUActivation()
2024-04-24 21:12:11 [INFO ]            )
2024-04-24 21:12:11 [INFO ]            (output): BertOutput(
2024-04-24 21:12:11 [INFO ]              (dense): Linear(in_features=3072, out_features=768, bias=True)
2024-04-24 21:12:11 [INFO ]              (LayerNorm): LayerNorm((768,), eps=1e-12, elementwise_affine=True)
2024-04-24 21:12:11 [INFO ]              (dropout): Dropout(p=0.1, inplace=False)
2024-04-24 21:12:11 [INFO ]            )
2024-04-24 21:12:11 [INFO ]          )
2024-04-24 21:12:11 [INFO ]        )
2024-04-24 21:12:11 [INFO ]      )
2024-04-24 21:12:11 [INFO ]      (pooler): BertPooler(
2024-04-24 21:12:11 [INFO ]        (dense): Linear(in_features=768, out_features=768, bias=True)
2024-04-24 21:12:11 [INFO ]        (activation): Tanh()
2024-04-24 21:12:11 [INFO ]      )
2024-04-24 21:12:11 [INFO ]    )
2024-04-24 21:12:11 [INFO ]    (classifier): MLP(
2024-04-24 21:12:11 [INFO ]      (output_layer): Linear(in_features=300, out_features=2, bias=True)
2024-04-24 21:12:11 [INFO ]      (AF): Tanh()
2024-04-24 21:12:11 [INFO ]      (dropout): Dropout(p=0.1, inplace=False)
2024-04-24 21:12:11 [INFO ]      (hidden_layers): ModuleList(
2024-04-24 21:12:11 [INFO ]        (0): Linear(in_features=768, out_features=300, bias=True)
2024-04-24 21:12:11 [INFO ]        (1): Dropout(p=0.1, inplace=False)
2024-04-24 21:12:11 [INFO ]        (2): Tanh()
2024-04-24 21:12:11 [INFO ]        (3): Linear(in_features=300, out_features=300, bias=True)
2024-04-24 21:12:11 [INFO ]        (4): Dropout(p=0.1, inplace=False)
2024-04-24 21:12:11 [INFO ]        (5): Tanh()
2024-04-24 21:12:11 [INFO ]      )
2024-04-24 21:12:11 [INFO ]      (criterion): CrossEntropyLoss()
2024-04-24 21:12:11 [INFO ]    )
2024-04-24 21:12:11 [INFO ]    (criterion): CrossEntropyLoss()
2024-04-24 21:12:11 [INFO ]  )
2024-04-24 21:12:11 [INFO ]  Total number of parameters: 108631874 
…
- This IS NOT expected if you are initializing BertModel from the checkpoint of a model that you expect to be exactly identical (initializing a BertForSequenceClassification model from a BertForSequenceClassification model).
2024-04-24 21:52:33 [INFO ]  Validation accuracy: 82.07	macro_fscore: 69.76	micro_fscore: 82.07	TPR_GAP: 5.82	FPR_GAP: 5.82	PPR_GAP: 2.16	
2024-04-24 21:52:33 [INFO ]  Test accuracy: 89.94	macro_fscore: 86.66	micro_fscore: 89.94	TPR_GAP: 5.06	FPR_GAP: 5.06	PPR_GAP: 9.53	
2024-04-24 21:52:33 [INFO ]  Model Trained!
2024-04-24 21:52:33 [INFO ]  Run LEACE
2024-04-24 21:52:35 [INFO ]  MLP( 
2024-04-24 21:52:35 [INFO ]    (output_layer): Linear(in_features=300, out_features=2, bias=True)
2024-04-24 21:52:35 [INFO ]    (AF): Tanh()
2024-04-24 21:52:35 [INFO ]    (dropout): Dropout(p=0.1, inplace=False)
2024-04-24 21:52:35 [INFO ]    (hidden_layers): ModuleList(
2024-04-24 21:52:35 [INFO ]      (0): Linear(in_features=768, out_features=300, bias=True)
2024-04-24 21:52:35 [INFO ]      (1): Dropout(p=0.1, inplace=False)
2024-04-24 21:52:35 [INFO ]      (2): Tanh()
2024-04-24 21:52:35 [INFO ]      (3): Linear(in_features=300, out_features=300, bias=True)
2024-04-24 21:52:35 [INFO ]      (4): Dropout(p=0.1, inplace=False)
2024-04-24 21:52:35 [INFO ]      (5): Tanh()
2024-04-24 21:52:35 [INFO ]    )
2024-04-24 21:52:35 [INFO ]    (criterion): CrossEntropyLoss()
2024-04-24 21:52:35 [INFO ]  )
2024-04-24 21:52:35 [INFO ]  Total number of parameters: 321602 

2024-04-24 21:52:35 [INFO ]  BERTClassifierLeace( 
2024-04-24 21:52:35 [INFO ]    (bert): BertModel(
2024-04-24 21:52:35 [INFO ]      (embeddings): BertEmbeddings(
2024-04-24 21:52:35 [INFO ]        (word_embeddings): Embedding(28996, 768, padding_idx=0)
2024-04-24 21:52:35 [INFO ]        (position_embeddings): Embedding(512, 768)
2024-04-24 21:52:35 [INFO ]        (token_type_embeddings): Embedding(2, 768)
2024-04-24 21:52:35 [INFO ]        (LayerNorm): LayerNorm((768,), eps=1e-12, elementwise_affine=True)
2024-04-24 21:52:35 [INFO ]        (dropout): Dropout(p=0.1, inplace=False)
2024-04-24 21:52:35 [INFO ]      )
2024-04-24 21:52:35 [INFO ]      (encoder): BertEncoder(
2024-04-24 21:52:35 [INFO ]        (layer): ModuleList(
2024-04-24 21:52:35 [INFO ]          (0): BertLayer(
2024-04-24 21:52:35 [INFO ]            (attention): BertAttention(
2024-04-24 21:52:35 [INFO ]              (self): BertSelfAttention(
2024-04-24 21:52:35 [INFO ]                (query): Linear(in_features=768, out_features=768, bias=True)
2024-04-24 21:52:35 [INFO ]                (key): Linear(in_features=768, out_features=768, bias=True)
2024-04-24 21:52:35 [INFO ]                (value): Linear(in_features=768, out_features=768, bias=True)
2024-04-24 21:52:35 [INFO ]                (dropout): Dropout(p=0.1, inplace=False)
2024-04-24 21:52:35 [INFO ]              )
2024-04-24 21:52:35 [INFO ]              (output): BertSelfOutput(
2024-04-24 21:52:35 [INFO ]                (dense): Linear(in_features=768, out_features=768, bias=True)
2024-04-24 21:52:35 [INFO ]                (LayerNorm): LayerNorm((768,), eps=1e-12, elementwise_affine=True)
2024-04-24 21:52:35 [INFO ]                (dropout): Dropout(p=0.1, inplace=False)
2024-04-24 21:52:35 [INFO ]              )
2024-04-24 21:52:35 [INFO ]            )
2024-04-24 21:52:35 [INFO ]            (intermediate): BertIntermediate(
2024-04-24 21:52:35 [INFO ]              (dense): Linear(in_features=768, out_features=3072, bias=True)
2024-04-24 21:52:35 [INFO ]              (intermediate_act_fn): GELUActivation()
2024-04-24 21:52:35 [INFO ]            )
2024-04-24 21:52:35 [INFO ]            (output): BertOutput(
2024-04-24 21:52:35 [INFO ]              (dense): Linear(in_features=3072, out_features=768, bias=True)
2024-04-24 21:52:35 [INFO ]              (LayerNorm): LayerNorm((768,), eps=1e-12, elementwise_affine=True)
2024-04-24 21:52:35 [INFO ]              (dropout): Dropout(p=0.1, inplace=False)
2024-04-24 21:52:35 [INFO ]            )
2024-04-24 21:52:35 [INFO ]          )
2024-04-24 21:52:35 [INFO ]          (1): BertLayer(
2024-04-24 21:52:35 [INFO ]            (attention): BertAttention(
2024-04-24 21:52:35 [INFO ]              (self): BertSelfAttention(
2024-04-24 21:52:35 [INFO ]                (query): Linear(in_features=768, out_features=768, bias=True)
2024-04-24 21:52:35 [INFO ]                (key): Linear(in_features=768, out_features=768, bias=True)
2024-04-24 21:52:35 [INFO ]                (value): Linear(in_features=768, out_features=768, bias=True)
2024-04-24 21:52:35 [INFO ]                (dropout): Dropout(p=0.1, inplace=False)
2024-04-24 21:52:35 [INFO ]              )
2024-04-24 21:52:35 [INFO ]              (output): BertSelfOutput(
2024-04-24 21:52:35 [INFO ]                (dense): Linear(in_features=768, out_features=768, bias=True)
2024-04-24 21:52:35 [INFO ]                (LayerNorm): LayerNorm((768,), eps=1e-12, elementwise_affine=True)
2024-04-24 21:52:35 [INFO ]                (dropout): Dropout(p=0.1, inplace=False)
2024-04-24 21:52:35 [INFO ]              )
2024-04-24 21:52:35 [INFO ]            )
2024-04-24 21:52:35 [INFO ]            (intermediate): BertIntermediate(
2024-04-24 21:52:35 [INFO ]              (dense): Linear(in_features=768, out_features=3072, bias=True)
2024-04-24 21:52:35 [INFO ]              (intermediate_act_fn): GELUActivation()
2024-04-24 21:52:35 [INFO ]            )
2024-04-24 21:52:35 [INFO ]            (output): BertOutput(
2024-04-24 21:52:35 [INFO ]              (dense): Linear(in_features=3072, out_features=768, bias=True)
2024-04-24 21:52:35 [INFO ]              (LayerNorm): LayerNorm((768,), eps=1e-12, elementwise_affine=True)
2024-04-24 21:52:35 [INFO ]              (dropout): Dropout(p=0.1, inplace=False)
2024-04-24 21:52:35 [INFO ]            )
2024-04-24 21:52:35 [INFO ]          )
2024-04-24 21:52:35 [INFO ]          (2): BertLayer(
2024-04-24 21:52:35 [INFO ]            (attention): BertAttention(
2024-04-24 21:52:35 [INFO ]              (self): BertSelfAttention(
2024-04-24 21:52:35 [INFO ]                (query): Linear(in_features=768, out_features=768, bias=True)
2024-04-24 21:52:35 [INFO ]                (key): Linear(in_features=768, out_features=768, bias=True)
2024-04-24 21:52:35 [INFO ]                (value): Linear(in_features=768, out_features=768, bias=True)
2024-04-24 21:52:35 [INFO ]                (dropout): Dropout(p=0.1, inplace=False)
2024-04-24 21:52:35 [INFO ]              )
2024-04-24 21:52:35 [INFO ]              (output): BertSelfOutput(
2024-04-24 21:52:35 [INFO ]                (dense): Linear(in_features=768, out_features=768, bias=True)
2024-04-24 21:52:35 [INFO ]                (LayerNorm): LayerNorm((768,), eps=1e-12, elementwise_affine=True)
2024-04-24 21:52:35 [INFO ]                (dropout): Dropout(p=0.1, inplace=False)
2024-04-24 21:52:35 [INFO ]              )
2024-04-24 21:52:35 [INFO ]            )
2024-04-24 21:52:35 [INFO ]            (intermediate): BertIntermediate(
2024-04-24 21:52:35 [INFO ]              (dense): Linear(in_features=768, out_features=3072, bias=True)
2024-04-24 21:52:35 [INFO ]              (intermediate_act_fn): GELUActivation()
2024-04-24 21:52:35 [INFO ]            )
2024-04-24 21:52:35 [INFO ]            (output): BertOutput(
2024-04-24 21:52:35 [INFO ]              (dense): Linear(in_features=3072, out_features=768, bias=True)
2024-04-24 21:52:35 [INFO ]              (LayerNorm): LayerNorm((768,), eps=1e-12, elementwise_affine=True)
2024-04-24 21:52:35 [INFO ]              (dropout): Dropout(p=0.1, inplace=False)
2024-04-24 21:52:35 [INFO ]            )
2024-04-24 21:52:35 [INFO ]          )
2024-04-24 21:52:35 [INFO ]          (3): BertLayer(
2024-04-24 21:52:35 [INFO ]            (attention): BertAttention(
2024-04-24 21:52:35 [INFO ]              (self): BertSelfAttention(
2024-04-24 21:52:35 [INFO ]                (query): Linear(in_features=768, out_features=768, bias=True)
2024-04-24 21:52:35 [INFO ]                (key): Linear(in_features=768, out_features=768, bias=True)
2024-04-24 21:52:35 [INFO ]                (value): Linear(in_features=768, out_features=768, bias=True)
2024-04-24 21:52:35 [INFO ]                (dropout): Dropout(p=0.1, inplace=False)
2024-04-24 21:52:35 [INFO ]              )
2024-04-24 21:52:35 [INFO ]              (output): BertSelfOutput(
2024-04-24 21:52:35 [INFO ]                (dense): Linear(in_features=768, out_features=768, bias=True)
2024-04-24 21:52:35 [INFO ]                (LayerNorm): LayerNorm((768,), eps=1e-12, elementwise_affine=True)
2024-04-24 21:52:35 [INFO ]                (dropout): Dropout(p=0.1, inplace=False)
2024-04-24 21:52:35 [INFO ]              )
2024-04-24 21:52:35 [INFO ]            )
2024-04-24 21:52:35 [INFO ]            (intermediate): BertIntermediate(
2024-04-24 21:52:35 [INFO ]              (dense): Linear(in_features=768, out_features=3072, bias=True)
2024-04-24 21:52:35 [INFO ]              (intermediate_act_fn): GELUActivation()
2024-04-24 21:52:35 [INFO ]            )
2024-04-24 21:52:35 [INFO ]            (output): BertOutput(
2024-04-24 21:52:35 [INFO ]              (dense): Linear(in_features=3072, out_features=768, bias=True)
2024-04-24 21:52:35 [INFO ]              (LayerNorm): LayerNorm((768,), eps=1e-12, elementwise_affine=True)
2024-04-24 21:52:35 [INFO ]              (dropout): Dropout(p=0.1, inplace=False)
2024-04-24 21:52:35 [INFO ]            )
2024-04-24 21:52:35 [INFO ]          )
2024-04-24 21:52:35 [INFO ]          (4): BertLayer(
2024-04-24 21:52:35 [INFO ]            (attention): BertAttention(
2024-04-24 21:52:35 [INFO ]              (self): BertSelfAttention(
2024-04-24 21:52:35 [INFO ]                (query): Linear(in_features=768, out_features=768, bias=True)
2024-04-24 21:52:35 [INFO ]                (key): Linear(in_features=768, out_features=768, bias=True)
2024-04-24 21:52:35 [INFO ]                (value): Linear(in_features=768, out_features=768, bias=True)
2024-04-24 21:52:35 [INFO ]                (dropout): Dropout(p=0.1, inplace=False)
2024-04-24 21:52:35 [INFO ]              )
2024-04-24 21:52:35 [INFO ]              (output): BertSelfOutput(
2024-04-24 21:52:35 [INFO ]                (dense): Linear(in_features=768, out_features=768, bias=True)
2024-04-24 21:52:35 [INFO ]                (LayerNorm): LayerNorm((768,), eps=1e-12, elementwise_affine=True)
2024-04-24 21:52:35 [INFO ]                (dropout): Dropout(p=0.1, inplace=False)
2024-04-24 21:52:35 [INFO ]              )
2024-04-24 21:52:35 [INFO ]            )
2024-04-24 21:52:35 [INFO ]            (intermediate): BertIntermediate(
2024-04-24 21:52:35 [INFO ]              (dense): Linear(in_features=768, out_features=3072, bias=True)
2024-04-24 21:52:35 [INFO ]              (intermediate_act_fn): GELUActivation()
2024-04-24 21:52:35 [INFO ]            )
2024-04-24 21:52:35 [INFO ]            (output): BertOutput(
2024-04-24 21:52:35 [INFO ]              (dense): Linear(in_features=3072, out_features=768, bias=True)
2024-04-24 21:52:35 [INFO ]              (LayerNorm): LayerNorm((768,), eps=1e-12, elementwise_affine=True)
2024-04-24 21:52:35 [INFO ]              (dropout): Dropout(p=0.1, inplace=False)
2024-04-24 21:52:35 [INFO ]            )
2024-04-24 21:52:35 [INFO ]          )
2024-04-24 21:52:35 [INFO ]          (5): BertLayer(
2024-04-24 21:52:35 [INFO ]            (attention): BertAttention(
2024-04-24 21:52:35 [INFO ]              (self): BertSelfAttention(
2024-04-24 21:52:35 [INFO ]                (query): Linear(in_features=768, out_features=768, bias=True)
2024-04-24 21:52:35 [INFO ]                (key): Linear(in_features=768, out_features=768, bias=True)
2024-04-24 21:52:35 [INFO ]                (value): Linear(in_features=768, out_features=768, bias=True)
2024-04-24 21:52:35 [INFO ]                (dropout): Dropout(p=0.1, inplace=False)
2024-04-24 21:52:35 [INFO ]              )
2024-04-24 21:52:35 [INFO ]              (output): BertSelfOutput(
2024-04-24 21:52:35 [INFO ]                (dense): Linear(in_features=768, out_features=768, bias=True)
2024-04-24 21:52:35 [INFO ]                (LayerNorm): LayerNorm((768,), eps=1e-12, elementwise_affine=True)
2024-04-24 21:52:35 [INFO ]                (dropout): Dropout(p=0.1, inplace=False)
2024-04-24 21:52:35 [INFO ]              )
2024-04-24 21:52:35 [INFO ]            )
2024-04-24 21:52:35 [INFO ]            (intermediate): BertIntermediate(
2024-04-24 21:52:35 [INFO ]              (dense): Linear(in_features=768, out_features=3072, bias=True)
2024-04-24 21:52:35 [INFO ]              (intermediate_act_fn): GELUActivation()
2024-04-24 21:52:35 [INFO ]            )
2024-04-24 21:52:35 [INFO ]            (output): BertOutput(
2024-04-24 21:52:35 [INFO ]              (dense): Linear(in_features=3072, out_features=768, bias=True)
2024-04-24 21:52:35 [INFO ]              (LayerNorm): LayerNorm((768,), eps=1e-12, elementwise_affine=True)
2024-04-24 21:52:35 [INFO ]              (dropout): Dropout(p=0.1, inplace=False)
2024-04-24 21:52:35 [INFO ]            )
2024-04-24 21:52:35 [INFO ]          )
2024-04-24 21:52:35 [INFO ]          (6): BertLayer(
2024-04-24 21:52:35 [INFO ]            (attention): BertAttention(
2024-04-24 21:52:35 [INFO ]              (self): BertSelfAttention(
2024-04-24 21:52:35 [INFO ]                (query): Linear(in_features=768, out_features=768, bias=True)
2024-04-24 21:52:35 [INFO ]                (key): Linear(in_features=768, out_features=768, bias=True)
2024-04-24 21:52:35 [INFO ]                (value): Linear(in_features=768, out_features=768, bias=True)
2024-04-24 21:52:35 [INFO ]                (dropout): Dropout(p=0.1, inplace=False)
2024-04-24 21:52:35 [INFO ]              )
2024-04-24 21:52:35 [INFO ]              (output): BertSelfOutput(
2024-04-24 21:52:35 [INFO ]                (dense): Linear(in_features=768, out_features=768, bias=True)
2024-04-24 21:52:35 [INFO ]                (LayerNorm): LayerNorm((768,), eps=1e-12, elementwise_affine=True)
2024-04-24 21:52:35 [INFO ]                (dropout): Dropout(p=0.1, inplace=False)
2024-04-24 21:52:35 [INFO ]              )
2024-04-24 21:52:35 [INFO ]            )
2024-04-24 21:52:35 [INFO ]            (intermediate): BertIntermediate(
2024-04-24 21:52:35 [INFO ]              (dense): Linear(in_features=768, out_features=3072, bias=True)
2024-04-24 21:52:35 [INFO ]              (intermediate_act_fn): GELUActivation()
2024-04-24 21:52:35 [INFO ]            )
2024-04-24 21:52:35 [INFO ]            (output): BertOutput(
2024-04-24 21:52:35 [INFO ]              (dense): Linear(in_features=3072, out_features=768, bias=True)
2024-04-24 21:52:35 [INFO ]              (LayerNorm): LayerNorm((768,), eps=1e-12, elementwise_affine=True)
2024-04-24 21:52:35 [INFO ]              (dropout): Dropout(p=0.1, inplace=False)
2024-04-24 21:52:35 [INFO ]            )
2024-04-24 21:52:35 [INFO ]          )
2024-04-24 21:52:35 [INFO ]          (7): BertLayer(
2024-04-24 21:52:35 [INFO ]            (attention): BertAttention(
2024-04-24 21:52:35 [INFO ]              (self): BertSelfAttention(
2024-04-24 21:52:35 [INFO ]                (query): Linear(in_features=768, out_features=768, bias=True)
2024-04-24 21:52:35 [INFO ]                (key): Linear(in_features=768, out_features=768, bias=True)
2024-04-24 21:52:35 [INFO ]                (value): Linear(in_features=768, out_features=768, bias=True)
2024-04-24 21:52:35 [INFO ]                (dropout): Dropout(p=0.1, inplace=False)
2024-04-24 21:52:35 [INFO ]              )
2024-04-24 21:52:35 [INFO ]              (output): BertSelfOutput(
2024-04-24 21:52:35 [INFO ]                (dense): Linear(in_features=768, out_features=768, bias=True)
2024-04-24 21:52:35 [INFO ]                (LayerNorm): LayerNorm((768,), eps=1e-12, elementwise_affine=True)
2024-04-24 21:52:35 [INFO ]                (dropout): Dropout(p=0.1, inplace=False)
2024-04-24 21:52:35 [INFO ]              )
2024-04-24 21:52:35 [INFO ]            )
2024-04-24 21:52:35 [INFO ]            (intermediate): BertIntermediate(
2024-04-24 21:52:35 [INFO ]              (dense): Linear(in_features=768, out_features=3072, bias=True)
2024-04-24 21:52:35 [INFO ]              (intermediate_act_fn): GELUActivation()
2024-04-24 21:52:35 [INFO ]            )
2024-04-24 21:52:35 [INFO ]            (output): BertOutput(
2024-04-24 21:52:35 [INFO ]              (dense): Linear(in_features=3072, out_features=768, bias=True)
2024-04-24 21:52:35 [INFO ]              (LayerNorm): LayerNorm((768,), eps=1e-12, elementwise_affine=True)
2024-04-24 21:52:35 [INFO ]              (dropout): Dropout(p=0.1, inplace=False)
2024-04-24 21:52:35 [INFO ]            )
2024-04-24 21:52:35 [INFO ]          )
2024-04-24 21:52:35 [INFO ]          (8): BertLayer(
2024-04-24 21:52:35 [INFO ]            (attention): BertAttention(
2024-04-24 21:52:35 [INFO ]              (self): BertSelfAttention(
2024-04-24 21:52:35 [INFO ]                (query): Linear(in_features=768, out_features=768, bias=True)
2024-04-24 21:52:35 [INFO ]                (key): Linear(in_features=768, out_features=768, bias=True)
2024-04-24 21:52:35 [INFO ]                (value): Linear(in_features=768, out_features=768, bias=True)
2024-04-24 21:52:35 [INFO ]                (dropout): Dropout(p=0.1, inplace=False)
2024-04-24 21:52:35 [INFO ]              )
2024-04-24 21:52:35 [INFO ]              (output): BertSelfOutput(
2024-04-24 21:52:35 [INFO ]                (dense): Linear(in_features=768, out_features=768, bias=True)
2024-04-24 21:52:35 [INFO ]                (LayerNorm): LayerNorm((768,), eps=1e-12, elementwise_affine=True)
2024-04-24 21:52:35 [INFO ]                (dropout): Dropout(p=0.1, inplace=False)
2024-04-24 21:52:35 [INFO ]              )
2024-04-24 21:52:35 [INFO ]            )
2024-04-24 21:52:35 [INFO ]            (intermediate): BertIntermediate(
2024-04-24 21:52:35 [INFO ]              (dense): Linear(in_features=768, out_features=3072, bias=True)
2024-04-24 21:52:35 [INFO ]              (intermediate_act_fn): GELUActivation()
2024-04-24 21:52:35 [INFO ]            )
2024-04-24 21:52:35 [INFO ]            (output): BertOutput(
2024-04-24 21:52:35 [INFO ]              (dense): Linear(in_features=3072, out_features=768, bias=True)
2024-04-24 21:52:35 [INFO ]              (LayerNorm): LayerNorm((768,), eps=1e-12, elementwise_affine=True)
2024-04-24 21:52:35 [INFO ]              (dropout): Dropout(p=0.1, inplace=False)
2024-04-24 21:52:35 [INFO ]            )
2024-04-24 21:52:35 [INFO ]          )
2024-04-24 21:52:35 [INFO ]          (9): BertLayer(
2024-04-24 21:52:35 [INFO ]            (attention): BertAttention(
2024-04-24 21:52:35 [INFO ]              (self): BertSelfAttention(
2024-04-24 21:52:35 [INFO ]                (query): Linear(in_features=768, out_features=768, bias=True)
2024-04-24 21:52:35 [INFO ]                (key): Linear(in_features=768, out_features=768, bias=True)
2024-04-24 21:52:35 [INFO ]                (value): Linear(in_features=768, out_features=768, bias=True)
2024-04-24 21:52:35 [INFO ]                (dropout): Dropout(p=0.1, inplace=False)
2024-04-24 21:52:35 [INFO ]              )
2024-04-24 21:52:35 [INFO ]              (output): BertSelfOutput(
2024-04-24 21:52:35 [INFO ]                (dense): Linear(in_features=768, out_features=768, bias=True)
2024-04-24 21:52:35 [INFO ]                (LayerNorm): LayerNorm((768,), eps=1e-12, elementwise_affine=True)
2024-04-24 21:52:35 [INFO ]                (dropout): Dropout(p=0.1, inplace=False)
2024-04-24 21:52:35 [INFO ]              )
2024-04-24 21:52:35 [INFO ]            )
2024-04-24 21:52:35 [INFO ]            (intermediate): BertIntermediate(
2024-04-24 21:52:35 [INFO ]              (dense): Linear(in_features=768, out_features=3072, bias=True)
2024-04-24 21:52:35 [INFO ]              (intermediate_act_fn): GELUActivation()
2024-04-24 21:52:35 [INFO ]            )
2024-04-24 21:52:35 [INFO ]            (output): BertOutput(
2024-04-24 21:52:35 [INFO ]              (dense): Linear(in_features=3072, out_features=768, bias=True)
2024-04-24 21:52:35 [INFO ]              (LayerNorm): LayerNorm((768,), eps=1e-12, elementwise_affine=True)
2024-04-24 21:52:35 [INFO ]              (dropout): Dropout(p=0.1, inplace=False)
2024-04-24 21:52:35 [INFO ]            )
2024-04-24 21:52:35 [INFO ]          )
2024-04-24 21:52:35 [INFO ]          (10): BertLayer(
2024-04-24 21:52:35 [INFO ]            (attention): BertAttention(
2024-04-24 21:52:35 [INFO ]              (self): BertSelfAttention(
2024-04-24 21:52:35 [INFO ]                (query): Linear(in_features=768, out_features=768, bias=True)
2024-04-24 21:52:35 [INFO ]                (key): Linear(in_features=768, out_features=768, bias=True)
2024-04-24 21:52:35 [INFO ]                (value): Linear(in_features=768, out_features=768, bias=True)
2024-04-24 21:52:35 [INFO ]                (dropout): Dropout(p=0.1, inplace=False)
2024-04-24 21:52:35 [INFO ]              )
2024-04-24 21:52:35 [INFO ]              (output): BertSelfOutput(
2024-04-24 21:52:35 [INFO ]                (dense): Linear(in_features=768, out_features=768, bias=True)
2024-04-24 21:52:35 [INFO ]                (LayerNorm): LayerNorm((768,), eps=1e-12, elementwise_affine=True)
2024-04-24 21:52:35 [INFO ]                (dropout): Dropout(p=0.1, inplace=False)
2024-04-24 21:52:35 [INFO ]              )
2024-04-24 21:52:35 [INFO ]            )
2024-04-24 21:52:35 [INFO ]            (intermediate): BertIntermediate(
2024-04-24 21:52:35 [INFO ]              (dense): Linear(in_features=768, out_features=3072, bias=True)
2024-04-24 21:52:35 [INFO ]              (intermediate_act_fn): GELUActivation()
2024-04-24 21:52:35 [INFO ]            )
2024-04-24 21:52:35 [INFO ]            (output): BertOutput(
2024-04-24 21:52:35 [INFO ]              (dense): Linear(in_features=3072, out_features=768, bias=True)
2024-04-24 21:52:35 [INFO ]              (LayerNorm): LayerNorm((768,), eps=1e-12, elementwise_affine=True)
2024-04-24 21:52:35 [INFO ]              (dropout): Dropout(p=0.1, inplace=False)
2024-04-24 21:52:35 [INFO ]            )
2024-04-24 21:52:35 [INFO ]          )
2024-04-24 21:52:35 [INFO ]          (11): BertLayer(
2024-04-24 21:52:35 [INFO ]            (attention): BertAttention(
2024-04-24 21:52:35 [INFO ]              (self): BertSelfAttention(
2024-04-24 21:52:35 [INFO ]                (query): Linear(in_features=768, out_features=768, bias=True)
2024-04-24 21:52:35 [INFO ]                (key): Linear(in_features=768, out_features=768, bias=True)
2024-04-24 21:52:35 [INFO ]                (value): Linear(in_features=768, out_features=768, bias=True)
2024-04-24 21:52:35 [INFO ]                (dropout): Dropout(p=0.1, inplace=False)
2024-04-24 21:52:35 [INFO ]              )
2024-04-24 21:52:35 [INFO ]              (output): BertSelfOutput(
2024-04-24 21:52:35 [INFO ]                (dense): Linear(in_features=768, out_features=768, bias=True)
2024-04-24 21:52:35 [INFO ]                (LayerNorm): LayerNorm((768,), eps=1e-12, elementwise_affine=True)
2024-04-24 21:52:35 [INFO ]                (dropout): Dropout(p=0.1, inplace=False)
2024-04-24 21:52:35 [INFO ]              )
2024-04-24 21:52:35 [INFO ]            )
2024-04-24 21:52:35 [INFO ]            (intermediate): BertIntermediate(
2024-04-24 21:52:35 [INFO ]              (dense): Linear(in_features=768, out_features=3072, bias=True)
2024-04-24 21:52:35 [INFO ]              (intermediate_act_fn): GELUActivation()
2024-04-24 21:52:35 [INFO ]            )
2024-04-24 21:52:35 [INFO ]            (output): BertOutput(
2024-04-24 21:52:35 [INFO ]              (dense): Linear(in_features=3072, out_features=768, bias=True)
2024-04-24 21:52:35 [INFO ]              (LayerNorm): LayerNorm((768,), eps=1e-12, elementwise_affine=True)
2024-04-24 21:52:35 [INFO ]              (dropout): Dropout(p=0.1, inplace=False)
2024-04-24 21:52:35 [INFO ]            )
2024-04-24 21:52:35 [INFO ]          )
2024-04-24 21:52:35 [INFO ]        )
2024-04-24 21:52:35 [INFO ]      )
2024-04-24 21:52:35 [INFO ]      (pooler): BertPooler(
2024-04-24 21:52:35 [INFO ]        (dense): Linear(in_features=768, out_features=768, bias=True)
2024-04-24 21:52:35 [INFO ]        (activation): Tanh()
2024-04-24 21:52:35 [INFO ]      )
2024-04-24 21:52:35 [INFO ]    )
2024-04-24 21:52:35 [INFO ]    (classifier): MLP(
2024-04-24 21:52:35 [INFO ]      (output_layer): Linear(in_features=300, out_features=2, bias=True)
2024-04-24 21:52:35 [INFO ]      (AF): Tanh()
2024-04-24 21:52:35 [INFO ]      (dropout): Dropout(p=0.1, inplace=False)
2024-04-24 21:52:35 [INFO ]      (hidden_layers): ModuleList(
2024-04-24 21:52:35 [INFO ]        (0): Linear(in_features=768, out_features=300, bias=True)
2024-04-24 21:52:35 [INFO ]        (1): Dropout(p=0.1, inplace=False)
2024-04-24 21:52:35 [INFO ]        (2): Tanh()
2024-04-24 21:52:35 [INFO ]        (3): Linear(in_features=300, out_features=300, bias=True)
2024-04-24 21:52:35 [INFO ]        (4): Dropout(p=0.1, inplace=False)
2024-04-24 21:52:35 [INFO ]        (5): Tanh()
2024-04-24 21:52:35 [INFO ]      )
2024-04-24 21:52:35 [INFO ]      (criterion): CrossEntropyLoss()
2024-04-24 21:52:35 [INFO ]    )
2024-04-24 21:52:35 [INFO ]    (criterion): CrossEntropyLoss()
2024-04-24 21:52:35 [INFO ]  )
2024-04-24 21:52:35 [INFO ]  Total number of parameters: 108631874 

Number of trainable parameters: 108310272
2024-04-24 21:52:35 [INFO ]  MLPLeace( 
2024-04-24 21:52:35 [INFO ]    (output_layer): Linear(in_features=300, out_features=2, bias=True)
2024-04-24 21:52:35 [INFO ]    (AF): Tanh()
2024-04-24 21:52:35 [INFO ]    (dropout): Dropout(p=0.1, inplace=False)
2024-04-24 21:52:35 [INFO ]    (hidden_layers): ModuleList(
2024-04-24 21:52:35 [INFO ]      (0): Linear(in_features=768, out_features=300, bias=True)
2024-04-24 21:52:35 [INFO ]      (1): Dropout(p=0.1, inplace=False)
2024-04-24 21:52:35 [INFO ]      (2): Tanh()
2024-04-24 21:52:35 [INFO ]      (3): Linear(in_features=300, out_features=300, bias=True)
2024-04-24 21:52:35 [INFO ]      (4): Dropout(p=0.1, inplace=False)
2024-04-24 21:52:35 [INFO ]      (5): Tanh()
2024-04-24 21:52:35 [INFO ]    )
2024-04-24 21:52:35 [INFO ]    (criterion): CrossEntropyLoss()
2024-04-24 21:52:35 [INFO ]  )
2024-04-24 21:52:35 [INFO ]  Total number of parameters: 321602 

2024-04-24 21:52:35 [INFO ]  BERTClassifierLeace( 
2024-04-24 21:52:35 [INFO ]    (bert): BertModel(
2024-04-24 21:52:35 [INFO ]      (embeddings): BertEmbeddings(
2024-04-24 21:52:35 [INFO ]        (word_embeddings): Embedding(28996, 768, padding_idx=0)
2024-04-24 21:52:35 [INFO ]        (position_embeddings): Embedding(512, 768)
2024-04-24 21:52:35 [INFO ]        (token_type_embeddings): Embedding(2, 768)
2024-04-24 21:52:35 [INFO ]        (LayerNorm): LayerNorm((768,), eps=1e-12, elementwise_affine=True)
2024-04-24 21:52:35 [INFO ]        (dropout): Dropout(p=0.1, inplace=False)
2024-04-24 21:52:35 [INFO ]      )
2024-04-24 21:52:35 [INFO ]      (encoder): BertEncoder(
2024-04-24 21:52:35 [INFO ]        (layer): ModuleList(
2024-04-24 21:52:35 [INFO ]          (0): BertLayer(
2024-04-24 21:52:35 [INFO ]            (attention): BertAttention(
2024-04-24 21:52:35 [INFO ]              (self): BertSelfAttention(
2024-04-24 21:52:35 [INFO ]                (query): Linear(in_features=768, out_features=768, bias=True)
2024-04-24 21:52:35 [INFO ]                (key): Linear(in_features=768, out_features=768, bias=True)
2024-04-24 21:52:35 [INFO ]                (value): Linear(in_features=768, out_features=768, bias=True)
2024-04-24 21:52:35 [INFO ]                (dropout): Dropout(p=0.1, inplace=False)
2024-04-24 21:52:35 [INFO ]              )
2024-04-24 21:52:35 [INFO ]              (output): BertSelfOutput(
2024-04-24 21:52:35 [INFO ]                (dense): Linear(in_features=768, out_features=768, bias=True)
2024-04-24 21:52:35 [INFO ]                (LayerNorm): LayerNorm((768,), eps=1e-12, elementwise_affine=True)
2024-04-24 21:52:35 [INFO ]                (dropout): Dropout(p=0.1, inplace=False)
2024-04-24 21:52:35 [INFO ]              )
2024-04-24 21:52:35 [INFO ]            )
2024-04-24 21:52:35 [INFO ]            (intermediate): BertIntermediate(
2024-04-24 21:52:35 [INFO ]              (dense): Linear(in_features=768, out_features=3072, bias=True)
2024-04-24 21:52:35 [INFO ]              (intermediate_act_fn): GELUActivation()
2024-04-24 21:52:35 [INFO ]            )
2024-04-24 21:52:35 [INFO ]            (output): BertOutput(
2024-04-24 21:52:35 [INFO ]              (dense): Linear(in_features=3072, out_features=768, bias=True)
2024-04-24 21:52:35 [INFO ]              (LayerNorm): LayerNorm((768,), eps=1e-12, elementwise_affine=True)
2024-04-24 21:52:35 [INFO ]              (dropout): Dropout(p=0.1, inplace=False)
2024-04-24 21:52:35 [INFO ]            )
2024-04-24 21:52:35 [INFO ]          )
2024-04-24 21:52:35 [INFO ]          (1): BertLayer(
2024-04-24 21:52:35 [INFO ]            (attention): BertAttention(
2024-04-24 21:52:35 [INFO ]              (self): BertSelfAttention(
2024-04-24 21:52:35 [INFO ]                (query): Linear(in_features=768, out_features=768, bias=True)
2024-04-24 21:52:35 [INFO ]                (key): Linear(in_features=768, out_features=768, bias=True)
2024-04-24 21:52:35 [INFO ]                (value): Linear(in_features=768, out_features=768, bias=True)
2024-04-24 21:52:35 [INFO ]                (dropout): Dropout(p=0.1, inplace=False)
2024-04-24 21:52:35 [INFO ]              )
2024-04-24 21:52:35 [INFO ]              (output): BertSelfOutput(
2024-04-24 21:52:35 [INFO ]                (dense): Linear(in_features=768, out_features=768, bias=True)
2024-04-24 21:52:35 [INFO ]                (LayerNorm): LayerNorm((768,), eps=1e-12, elementwise_affine=True)
2024-04-24 21:52:35 [INFO ]                (dropout): Dropout(p=0.1, inplace=False)
2024-04-24 21:52:35 [INFO ]              )
2024-04-24 21:52:35 [INFO ]            )
2024-04-24 21:52:35 [INFO ]            (intermediate): BertIntermediate(
2024-04-24 21:52:35 [INFO ]              (dense): Linear(in_features=768, out_features=3072, bias=True)
2024-04-24 21:52:35 [INFO ]              (intermediate_act_fn): GELUActivation()
2024-04-24 21:52:35 [INFO ]            )
2024-04-24 21:52:35 [INFO ]            (output): BertOutput(
2024-04-24 21:52:35 [INFO ]              (dense): Linear(in_features=3072, out_features=768, bias=True)
2024-04-24 21:52:35 [INFO ]              (LayerNorm): LayerNorm((768,), eps=1e-12, elementwise_affine=True)
2024-04-24 21:52:35 [INFO ]              (dropout): Dropout(p=0.1, inplace=False)
2024-04-24 21:52:35 [INFO ]            )
2024-04-24 21:52:35 [INFO ]          )
2024-04-24 21:52:35 [INFO ]          (2): BertLayer(
2024-04-24 21:52:35 [INFO ]            (attention): BertAttention(
2024-04-24 21:52:35 [INFO ]              (self): BertSelfAttention(
2024-04-24 21:52:35 [INFO ]                (query): Linear(in_features=768, out_features=768, bias=True)
2024-04-24 21:52:35 [INFO ]                (key): Linear(in_features=768, out_features=768, bias=True)
2024-04-24 21:52:35 [INFO ]                (value): Linear(in_features=768, out_features=768, bias=True)
2024-04-24 21:52:35 [INFO ]                (dropout): Dropout(p=0.1, inplace=False)
2024-04-24 21:52:35 [INFO ]              )
2024-04-24 21:52:35 [INFO ]              (output): BertSelfOutput(
2024-04-24 21:52:35 [INFO ]                (dense): Linear(in_features=768, out_features=768, bias=True)
2024-04-24 21:52:35 [INFO ]                (LayerNorm): LayerNorm((768,), eps=1e-12, elementwise_affine=True)
2024-04-24 21:52:35 [INFO ]                (dropout): Dropout(p=0.1, inplace=False)
2024-04-24 21:52:35 [INFO ]              )
2024-04-24 21:52:35 [INFO ]            )
2024-04-24 21:52:35 [INFO ]            (intermediate): BertIntermediate(
2024-04-24 21:52:35 [INFO ]              (dense): Linear(in_features=768, out_features=3072, bias=True)
2024-04-24 21:52:35 [INFO ]              (intermediate_act_fn): GELUActivation()
2024-04-24 21:52:35 [INFO ]            )
2024-04-24 21:52:35 [INFO ]            (output): BertOutput(
2024-04-24 21:52:35 [INFO ]              (dense): Linear(in_features=3072, out_features=768, bias=True)
2024-04-24 21:52:35 [INFO ]              (LayerNorm): LayerNorm((768,), eps=1e-12, elementwise_affine=True)
2024-04-24 21:52:35 [INFO ]              (dropout): Dropout(p=0.1, inplace=False)
2024-04-24 21:52:35 [INFO ]            )
2024-04-24 21:52:35 [INFO ]          )
2024-04-24 21:52:35 [INFO ]          (3): BertLayer(
2024-04-24 21:52:35 [INFO ]            (attention): BertAttention(
2024-04-24 21:52:35 [INFO ]              (self): BertSelfAttention(
2024-04-24 21:52:35 [INFO ]                (query): Linear(in_features=768, out_features=768, bias=True)
2024-04-24 21:52:35 [INFO ]                (key): Linear(in_features=768, out_features=768, bias=True)
2024-04-24 21:52:35 [INFO ]                (value): Linear(in_features=768, out_features=768, bias=True)
2024-04-24 21:52:35 [INFO ]                (dropout): Dropout(p=0.1, inplace=False)
2024-04-24 21:52:35 [INFO ]              )
2024-04-24 21:52:35 [INFO ]              (output): BertSelfOutput(
2024-04-24 21:52:35 [INFO ]                (dense): Linear(in_features=768, out_features=768, bias=True)
2024-04-24 21:52:35 [INFO ]                (LayerNorm): LayerNorm((768,), eps=1e-12, elementwise_affine=True)
2024-04-24 21:52:35 [INFO ]                (dropout): Dropout(p=0.1, inplace=False)
2024-04-24 21:52:35 [INFO ]              )
2024-04-24 21:52:35 [INFO ]            )
2024-04-24 21:52:35 [INFO ]            (intermediate): BertIntermediate(
2024-04-24 21:52:35 [INFO ]              (dense): Linear(in_features=768, out_features=3072, bias=True)
2024-04-24 21:52:35 [INFO ]              (intermediate_act_fn): GELUActivation()
2024-04-24 21:52:35 [INFO ]            )
2024-04-24 21:52:35 [INFO ]            (output): BertOutput(
2024-04-24 21:52:35 [INFO ]              (dense): Linear(in_features=3072, out_features=768, bias=True)
2024-04-24 21:52:35 [INFO ]              (LayerNorm): LayerNorm((768,), eps=1e-12, elementwise_affine=True)
2024-04-24 21:52:35 [INFO ]              (dropout): Dropout(p=0.1, inplace=False)
2024-04-24 21:52:35 [INFO ]            )
2024-04-24 21:52:35 [INFO ]          )
2024-04-24 21:52:35 [INFO ]          (4): BertLayer(
2024-04-24 21:52:35 [INFO ]            (attention): BertAttention(
2024-04-24 21:52:35 [INFO ]              (self): BertSelfAttention(
2024-04-24 21:52:35 [INFO ]                (query): Linear(in_features=768, out_features=768, bias=True)
2024-04-24 21:52:35 [INFO ]                (key): Linear(in_features=768, out_features=768, bias=True)
2024-04-24 21:52:35 [INFO ]                (value): Linear(in_features=768, out_features=768, bias=True)
2024-04-24 21:52:35 [INFO ]                (dropout): Dropout(p=0.1, inplace=False)
2024-04-24 21:52:35 [INFO ]              )
2024-04-24 21:52:35 [INFO ]              (output): BertSelfOutput(
2024-04-24 21:52:35 [INFO ]                (dense): Linear(in_features=768, out_features=768, bias=True)
2024-04-24 21:52:35 [INFO ]                (LayerNorm): LayerNorm((768,), eps=1e-12, elementwise_affine=True)
2024-04-24 21:52:35 [INFO ]                (dropout): Dropout(p=0.1, inplace=False)
2024-04-24 21:52:35 [INFO ]              )
2024-04-24 21:52:35 [INFO ]            )
2024-04-24 21:52:35 [INFO ]            (intermediate): BertIntermediate(
2024-04-24 21:52:35 [INFO ]              (dense): Linear(in_features=768, out_features=3072, bias=True)
2024-04-24 21:52:35 [INFO ]              (intermediate_act_fn): GELUActivation()
2024-04-24 21:52:35 [INFO ]            )
2024-04-24 21:52:35 [INFO ]            (output): BertOutput(
2024-04-24 21:52:35 [INFO ]              (dense): Linear(in_features=3072, out_features=768, bias=True)
2024-04-24 21:52:35 [INFO ]              (LayerNorm): LayerNorm((768,), eps=1e-12, elementwise_affine=True)
2024-04-24 21:52:35 [INFO ]              (dropout): Dropout(p=0.1, inplace=False)
2024-04-24 21:52:35 [INFO ]            )
2024-04-24 21:52:35 [INFO ]          )
2024-04-24 21:52:35 [INFO ]          (5): BertLayer(
2024-04-24 21:52:35 [INFO ]            (attention): BertAttention(
2024-04-24 21:52:35 [INFO ]              (self): BertSelfAttention(
2024-04-24 21:52:35 [INFO ]                (query): Linear(in_features=768, out_features=768, bias=True)
2024-04-24 21:52:35 [INFO ]                (key): Linear(in_features=768, out_features=768, bias=True)
2024-04-24 21:52:35 [INFO ]                (value): Linear(in_features=768, out_features=768, bias=True)
2024-04-24 21:52:35 [INFO ]                (dropout): Dropout(p=0.1, inplace=False)
2024-04-24 21:52:35 [INFO ]              )
2024-04-24 21:52:35 [INFO ]              (output): BertSelfOutput(
2024-04-24 21:52:35 [INFO ]                (dense): Linear(in_features=768, out_features=768, bias=True)
2024-04-24 21:52:35 [INFO ]                (LayerNorm): LayerNorm((768,), eps=1e-12, elementwise_affine=True)
2024-04-24 21:52:35 [INFO ]                (dropout): Dropout(p=0.1, inplace=False)
2024-04-24 21:52:35 [INFO ]              )
2024-04-24 21:52:35 [INFO ]            )
2024-04-24 21:52:35 [INFO ]            (intermediate): BertIntermediate(
2024-04-24 21:52:35 [INFO ]              (dense): Linear(in_features=768, out_features=3072, bias=True)
2024-04-24 21:52:35 [INFO ]              (intermediate_act_fn): GELUActivation()
2024-04-24 21:52:35 [INFO ]            )
2024-04-24 21:52:35 [INFO ]            (output): BertOutput(
2024-04-24 21:52:35 [INFO ]              (dense): Linear(in_features=3072, out_features=768, bias=True)
2024-04-24 21:52:35 [INFO ]              (LayerNorm): LayerNorm((768,), eps=1e-12, elementwise_affine=True)
2024-04-24 21:52:35 [INFO ]              (dropout): Dropout(p=0.1, inplace=False)
2024-04-24 21:52:35 [INFO ]            )
2024-04-24 21:52:35 [INFO ]          )
2024-04-24 21:52:35 [INFO ]          (6): BertLayer(
2024-04-24 21:52:35 [INFO ]            (attention): BertAttention(
2024-04-24 21:52:35 [INFO ]              (self): BertSelfAttention(
2024-04-24 21:52:35 [INFO ]                (query): Linear(in_features=768, out_features=768, bias=True)
2024-04-24 21:52:35 [INFO ]                (key): Linear(in_features=768, out_features=768, bias=True)
2024-04-24 21:52:35 [INFO ]                (value): Linear(in_features=768, out_features=768, bias=True)
2024-04-24 21:52:35 [INFO ]                (dropout): Dropout(p=0.1, inplace=False)
2024-04-24 21:52:35 [INFO ]              )
2024-04-24 21:52:35 [INFO ]              (output): BertSelfOutput(
2024-04-24 21:52:35 [INFO ]                (dense): Linear(in_features=768, out_features=768, bias=True)
2024-04-24 21:52:35 [INFO ]                (LayerNorm): LayerNorm((768,), eps=1e-12, elementwise_affine=True)
2024-04-24 21:52:35 [INFO ]                (dropout): Dropout(p=0.1, inplace=False)
2024-04-24 21:52:35 [INFO ]              )
2024-04-24 21:52:35 [INFO ]            )
2024-04-24 21:52:35 [INFO ]            (intermediate): BertIntermediate(
2024-04-24 21:52:35 [INFO ]              (dense): Linear(in_features=768, out_features=3072, bias=True)
2024-04-24 21:52:35 [INFO ]              (intermediate_act_fn): GELUActivation()
2024-04-24 21:52:35 [INFO ]            )
2024-04-24 21:52:35 [INFO ]            (output): BertOutput(
2024-04-24 21:52:35 [INFO ]              (dense): Linear(in_features=3072, out_features=768, bias=True)
2024-04-24 21:52:35 [INFO ]              (LayerNorm): LayerNorm((768,), eps=1e-12, elementwise_affine=True)
2024-04-24 21:52:35 [INFO ]              (dropout): Dropout(p=0.1, inplace=False)
2024-04-24 21:52:35 [INFO ]            )
2024-04-24 21:52:35 [INFO ]          )
2024-04-24 21:52:35 [INFO ]          (7): BertLayer(
2024-04-24 21:52:35 [INFO ]            (attention): BertAttention(
2024-04-24 21:52:35 [INFO ]              (self): BertSelfAttention(
2024-04-24 21:52:35 [INFO ]                (query): Linear(in_features=768, out_features=768, bias=True)
2024-04-24 21:52:35 [INFO ]                (key): Linear(in_features=768, out_features=768, bias=True)
2024-04-24 21:52:35 [INFO ]                (value): Linear(in_features=768, out_features=768, bias=True)
2024-04-24 21:52:35 [INFO ]                (dropout): Dropout(p=0.1, inplace=False)
2024-04-24 21:52:35 [INFO ]              )
2024-04-24 21:52:35 [INFO ]              (output): BertSelfOutput(
2024-04-24 21:52:35 [INFO ]                (dense): Linear(in_features=768, out_features=768, bias=True)
2024-04-24 21:52:35 [INFO ]                (LayerNorm): LayerNorm((768,), eps=1e-12, elementwise_affine=True)
2024-04-24 21:52:35 [INFO ]                (dropout): Dropout(p=0.1, inplace=False)
2024-04-24 21:52:35 [INFO ]              )
2024-04-24 21:52:35 [INFO ]            )
2024-04-24 21:52:35 [INFO ]            (intermediate): BertIntermediate(
2024-04-24 21:52:35 [INFO ]              (dense): Linear(in_features=768, out_features=3072, bias=True)
2024-04-24 21:52:35 [INFO ]              (intermediate_act_fn): GELUActivation()
2024-04-24 21:52:35 [INFO ]            )
2024-04-24 21:52:35 [INFO ]            (output): BertOutput(
2024-04-24 21:52:35 [INFO ]              (dense): Linear(in_features=3072, out_features=768, bias=True)
2024-04-24 21:52:35 [INFO ]              (LayerNorm): LayerNorm((768,), eps=1e-12, elementwise_affine=True)
2024-04-24 21:52:35 [INFO ]              (dropout): Dropout(p=0.1, inplace=False)
2024-04-24 21:52:35 [INFO ]            )
2024-04-24 21:52:35 [INFO ]          )
2024-04-24 21:52:35 [INFO ]          (8): BertLayer(
2024-04-24 21:52:35 [INFO ]            (attention): BertAttention(
2024-04-24 21:52:35 [INFO ]              (self): BertSelfAttention(
2024-04-24 21:52:35 [INFO ]                (query): Linear(in_features=768, out_features=768, bias=True)
2024-04-24 21:52:35 [INFO ]                (key): Linear(in_features=768, out_features=768, bias=True)
2024-04-24 21:52:35 [INFO ]                (value): Linear(in_features=768, out_features=768, bias=True)
2024-04-24 21:52:35 [INFO ]                (dropout): Dropout(p=0.1, inplace=False)
2024-04-24 21:52:35 [INFO ]              )
2024-04-24 21:52:35 [INFO ]              (output): BertSelfOutput(
2024-04-24 21:52:35 [INFO ]                (dense): Linear(in_features=768, out_features=768, bias=True)
2024-04-24 21:52:35 [INFO ]                (LayerNorm): LayerNorm((768,), eps=1e-12, elementwise_affine=True)
2024-04-24 21:52:35 [INFO ]                (dropout): Dropout(p=0.1, inplace=False)
2024-04-24 21:52:35 [INFO ]              )
2024-04-24 21:52:35 [INFO ]            )
2024-04-24 21:52:35 [INFO ]            (intermediate): BertIntermediate(
2024-04-24 21:52:35 [INFO ]              (dense): Linear(in_features=768, out_features=3072, bias=True)
2024-04-24 21:52:35 [INFO ]              (intermediate_act_fn): GELUActivation()
2024-04-24 21:52:35 [INFO ]            )
2024-04-24 21:52:35 [INFO ]            (output): BertOutput(
2024-04-24 21:52:35 [INFO ]              (dense): Linear(in_features=3072, out_features=768, bias=True)
2024-04-24 21:52:35 [INFO ]              (LayerNorm): LayerNorm((768,), eps=1e-12, elementwise_affine=True)
2024-04-24 21:52:35 [INFO ]              (dropout): Dropout(p=0.1, inplace=False)
2024-04-24 21:52:35 [INFO ]            )
2024-04-24 21:52:35 [INFO ]          )
2024-04-24 21:52:35 [INFO ]          (9): BertLayer(
2024-04-24 21:52:35 [INFO ]            (attention): BertAttention(
2024-04-24 21:52:35 [INFO ]              (self): BertSelfAttention(
2024-04-24 21:52:35 [INFO ]                (query): Linear(in_features=768, out_features=768, bias=True)
2024-04-24 21:52:35 [INFO ]                (key): Linear(in_features=768, out_features=768, bias=True)
2024-04-24 21:52:35 [INFO ]                (value): Linear(in_features=768, out_features=768, bias=True)
2024-04-24 21:52:35 [INFO ]                (dropout): Dropout(p=0.1, inplace=False)
2024-04-24 21:52:35 [INFO ]              )
2024-04-24 21:52:35 [INFO ]              (output): BertSelfOutput(
2024-04-24 21:52:35 [INFO ]                (dense): Linear(in_features=768, out_features=768, bias=True)
2024-04-24 21:52:35 [INFO ]                (LayerNorm): LayerNorm((768,), eps=1e-12, elementwise_affine=True)
2024-04-24 21:52:35 [INFO ]                (dropout): Dropout(p=0.1, inplace=False)
2024-04-24 21:52:35 [INFO ]              )
2024-04-24 21:52:35 [INFO ]            )
2024-04-24 21:52:35 [INFO ]            (intermediate): BertIntermediate(
2024-04-24 21:52:35 [INFO ]              (dense): Linear(in_features=768, out_features=3072, bias=True)
2024-04-24 21:52:35 [INFO ]              (intermediate_act_fn): GELUActivation()
2024-04-24 21:52:35 [INFO ]            )
2024-04-24 21:52:35 [INFO ]            (output): BertOutput(
2024-04-24 21:52:35 [INFO ]              (dense): Linear(in_features=3072, out_features=768, bias=True)
2024-04-24 21:52:35 [INFO ]              (LayerNorm): LayerNorm((768,), eps=1e-12, elementwise_affine=True)
2024-04-24 21:52:35 [INFO ]              (dropout): Dropout(p=0.1, inplace=False)
2024-04-24 21:52:35 [INFO ]            )
2024-04-24 21:52:35 [INFO ]          )
2024-04-24 21:52:35 [INFO ]          (10): BertLayer(
2024-04-24 21:52:35 [INFO ]            (attention): BertAttention(
2024-04-24 21:52:35 [INFO ]              (self): BertSelfAttention(
2024-04-24 21:52:35 [INFO ]                (query): Linear(in_features=768, out_features=768, bias=True)
2024-04-24 21:52:35 [INFO ]                (key): Linear(in_features=768, out_features=768, bias=True)
2024-04-24 21:52:35 [INFO ]                (value): Linear(in_features=768, out_features=768, bias=True)
2024-04-24 21:52:35 [INFO ]                (dropout): Dropout(p=0.1, inplace=False)
2024-04-24 21:52:35 [INFO ]              )
2024-04-24 21:52:35 [INFO ]              (output): BertSelfOutput(
2024-04-24 21:52:35 [INFO ]                (dense): Linear(in_features=768, out_features=768, bias=True)
2024-04-24 21:52:35 [INFO ]                (LayerNorm): LayerNorm((768,), eps=1e-12, elementwise_affine=True)
2024-04-24 21:52:35 [INFO ]                (dropout): Dropout(p=0.1, inplace=False)
2024-04-24 21:52:35 [INFO ]              )
2024-04-24 21:52:35 [INFO ]            )
2024-04-24 21:52:35 [INFO ]            (intermediate): BertIntermediate(
2024-04-24 21:52:35 [INFO ]              (dense): Linear(in_features=768, out_features=3072, bias=True)
2024-04-24 21:52:35 [INFO ]              (intermediate_act_fn): GELUActivation()
2024-04-24 21:52:35 [INFO ]            )
2024-04-24 21:52:35 [INFO ]            (output): BertOutput(
2024-04-24 21:52:35 [INFO ]              (dense): Linear(in_features=3072, out_features=768, bias=True)
2024-04-24 21:52:35 [INFO ]              (LayerNorm): LayerNorm((768,), eps=1e-12, elementwise_affine=True)
2024-04-24 21:52:35 [INFO ]              (dropout): Dropout(p=0.1, inplace=False)
2024-04-24 21:52:35 [INFO ]            )
2024-04-24 21:52:35 [INFO ]          )
2024-04-24 21:52:35 [INFO ]          (11): BertLayer(
2024-04-24 21:52:35 [INFO ]            (attention): BertAttention(
2024-04-24 21:52:35 [INFO ]              (self): BertSelfAttention(
2024-04-24 21:52:35 [INFO ]                (query): Linear(in_features=768, out_features=768, bias=True)
2024-04-24 21:52:35 [INFO ]                (key): Linear(in_features=768, out_features=768, bias=True)
2024-04-24 21:52:35 [INFO ]                (value): Linear(in_features=768, out_features=768, bias=True)
2024-04-24 21:52:35 [INFO ]                (dropout): Dropout(p=0.1, inplace=False)
2024-04-24 21:52:35 [INFO ]              )
2024-04-24 21:52:35 [INFO ]              (output): BertSelfOutput(
2024-04-24 21:52:35 [INFO ]                (dense): Linear(in_features=768, out_features=768, bias=True)
2024-04-24 21:52:35 [INFO ]                (LayerNorm): LayerNorm((768,), eps=1e-12, elementwise_affine=True)
2024-04-24 21:52:35 [INFO ]                (dropout): Dropout(p=0.1, inplace=False)
2024-04-24 21:52:35 [INFO ]              )
2024-04-24 21:52:35 [INFO ]            )
2024-04-24 21:52:35 [INFO ]            (intermediate): BertIntermediate(
2024-04-24 21:52:35 [INFO ]              (dense): Linear(in_features=768, out_features=3072, bias=True)
2024-04-24 21:52:35 [INFO ]              (intermediate_act_fn): GELUActivation()
2024-04-24 21:52:35 [INFO ]            )
2024-04-24 21:52:35 [INFO ]            (output): BertOutput(
2024-04-24 21:52:35 [INFO ]              (dense): Linear(in_features=3072, out_features=768, bias=True)
2024-04-24 21:52:35 [INFO ]              (LayerNorm): LayerNorm((768,), eps=1e-12, elementwise_affine=True)
2024-04-24 21:52:35 [INFO ]              (dropout): Dropout(p=0.1, inplace=False)
2024-04-24 21:52:35 [INFO ]            )
2024-04-24 21:52:35 [INFO ]          )
2024-04-24 21:52:35 [INFO ]        )
2024-04-24 21:52:35 [INFO ]      )
2024-04-24 21:52:35 [INFO ]      (pooler): BertPooler(
2024-04-24 21:52:35 [INFO ]        (dense): Linear(in_features=768, out_features=768, bias=True)
2024-04-24 21:52:35 [INFO ]        (activation): Tanh()
2024-04-24 21:52:35 [INFO ]      )
2024-04-24 21:52:35 [INFO ]    )
2024-04-24 21:52:35 [INFO ]    (classifier): MLPLeace(
2024-04-24 21:52:35 [INFO ]      (output_layer): Linear(in_features=300, out_features=2, bias=True)
2024-04-24 21:52:35 [INFO ]      (AF): Tanh()
2024-04-24 21:52:35 [INFO ]      (dropout): Dropout(p=0.1, inplace=False)
2024-04-24 21:52:35 [INFO ]      (hidden_layers): ModuleList(
2024-04-24 21:52:35 [INFO ]        (0): Linear(in_features=768, out_features=300, bias=True)
2024-04-24 21:52:35 [INFO ]        (1): Dropout(p=0.1, inplace=False)
2024-04-24 21:52:35 [INFO ]        (2): Tanh()
2024-04-24 21:52:35 [INFO ]        (3): Linear(in_features=300, out_features=300, bias=True)
2024-04-24 21:52:35 [INFO ]        (4): Dropout(p=0.1, inplace=False)
2024-04-24 21:52:35 [INFO ]        (5): Tanh()
2024-04-24 21:52:35 [INFO ]      )
2024-04-24 21:52:35 [INFO ]      (criterion): CrossEntropyLoss()
2024-04-24 21:52:35 [INFO ]    )
2024-04-24 21:52:35 [INFO ]    (criterion): CrossEntropyLoss()
2024-04-24 21:52:35 [INFO ]  )
2024-04-24 21:52:35 [INFO ]  Total number of parameters: 108631874 
…
